<?xml version="1.0" ?>
<net name="ru_quartznet" version="10">
	<layers>
		<layer id="0" name="audio_signal" type="Parameter" version="opset1">
			<data shape="1, 64, 256" element_type="f32"/>
			<output>
				<port id="0" precision="FP32" names="audio_signal">
					<dim>1</dim>
					<dim>64</dim>
					<dim>256</dim>
				</port>
			</output>
		</layer>
		<layer id="1" name="encoder.encoder.0.mconv.0.conv.weight" type="Const" version="opset1">
			<data element_type="f32" shape="64, 1, 1, 33" offset="0" size="8448"/>
			<output>
				<port id="0" precision="FP32" names="encoder.encoder.0.mconv.0.conv.weight">
					<dim>64</dim>
					<dim>1</dim>
					<dim>1</dim>
					<dim>33</dim>
				</port>
			</output>
		</layer>
		<layer id="2" name="Conv_0" type="GroupConvolution" version="opset1">
			<data strides="2" pads_begin="16" pads_end="16" dilations="1" auto_pad="explicit"/>
			<input>
				<port id="0" precision="FP32">
					<dim>1</dim>
					<dim>64</dim>
					<dim>256</dim>
				</port>
				<port id="1" precision="FP32">
					<dim>64</dim>
					<dim>1</dim>
					<dim>1</dim>
					<dim>33</dim>
				</port>
			</input>
			<output>
				<port id="2" precision="FP32" names="640">
					<dim>1</dim>
					<dim>64</dim>
					<dim>128</dim>
				</port>
			</output>
		</layer>
		<layer id="3" name="1000" type="Const" version="opset1">
			<data element_type="f32" shape="256, 64, 1" offset="8448" size="65536"/>
			<output>
				<port id="0" precision="FP32" names="1000">
					<dim>256</dim>
					<dim>64</dim>
					<dim>1</dim>
				</port>
			</output>
		</layer>
		<layer id="4" name="Conv_1/WithoutBiases" type="Convolution" version="opset1">
			<data strides="1" dilations="1" pads_begin="0" pads_end="0" auto_pad="explicit"/>
			<input>
				<port id="0" precision="FP32">
					<dim>1</dim>
					<dim>64</dim>
					<dim>128</dim>
				</port>
				<port id="1" precision="FP32">
					<dim>256</dim>
					<dim>64</dim>
					<dim>1</dim>
				</port>
			</input>
			<output>
				<port id="2" precision="FP32">
					<dim>1</dim>
					<dim>256</dim>
					<dim>128</dim>
				</port>
			</output>
		</layer>
		<layer id="5" name="Conv_1/Dims5185" type="Const" version="opset1">
			<data element_type="f32" shape="1, 256, 1" offset="73984" size="1024"/>
			<output>
				<port id="0" precision="FP32">
					<dim>1</dim>
					<dim>256</dim>
					<dim>1</dim>
				</port>
			</output>
		</layer>
		<layer id="6" name="Conv_1" type="Add" version="opset1">
			<data auto_broadcast="numpy"/>
			<input>
				<port id="0" precision="FP32">
					<dim>1</dim>
					<dim>256</dim>
					<dim>128</dim>
				</port>
				<port id="1" precision="FP32">
					<dim>1</dim>
					<dim>256</dim>
					<dim>1</dim>
				</port>
			</input>
			<output>
				<port id="2" precision="FP32" names="999">
					<dim>1</dim>
					<dim>256</dim>
					<dim>128</dim>
				</port>
			</output>
		</layer>
		<layer id="7" name="Relu_2" type="ReLU" version="opset1">
			<input>
				<port id="0" precision="FP32">
					<dim>1</dim>
					<dim>256</dim>
					<dim>128</dim>
				</port>
			</input>
			<output>
				<port id="1" precision="FP32" names="643">
					<dim>1</dim>
					<dim>256</dim>
					<dim>128</dim>
				</port>
			</output>
		</layer>
		<layer id="8" name="encoder.encoder.1.mconv.0.conv.weight" type="Const" version="opset1">
			<data element_type="f32" shape="256, 1, 1, 33" offset="75008" size="33792"/>
			<output>
				<port id="0" precision="FP32" names="encoder.encoder.1.mconv.0.conv.weight">
					<dim>256</dim>
					<dim>1</dim>
					<dim>1</dim>
					<dim>33</dim>
				</port>
			</output>
		</layer>
		<layer id="9" name="Conv_3" type="GroupConvolution" version="opset1">
			<data strides="1" pads_begin="16" pads_end="16" dilations="1" auto_pad="explicit"/>
			<input>
				<port id="0" precision="FP32">
					<dim>1</dim>
					<dim>256</dim>
					<dim>128</dim>
				</port>
				<port id="1" precision="FP32">
					<dim>256</dim>
					<dim>1</dim>
					<dim>1</dim>
					<dim>33</dim>
				</port>
			</input>
			<output>
				<port id="2" precision="FP32" names="644">
					<dim>1</dim>
					<dim>256</dim>
					<dim>128</dim>
				</port>
			</output>
		</layer>
		<layer id="10" name="1003" type="Const" version="opset1">
			<data element_type="f32" shape="256, 256, 1" offset="108800" size="262144"/>
			<output>
				<port id="0" precision="FP32" names="1003">
					<dim>256</dim>
					<dim>256</dim>
					<dim>1</dim>
				</port>
			</output>
		</layer>
		<layer id="11" name="Conv_4/WithoutBiases" type="Convolution" version="opset1">
			<data strides="1" dilations="1" pads_begin="0" pads_end="0" auto_pad="explicit"/>
			<input>
				<port id="0" precision="FP32">
					<dim>1</dim>
					<dim>256</dim>
					<dim>128</dim>
				</port>
				<port id="1" precision="FP32">
					<dim>256</dim>
					<dim>256</dim>
					<dim>1</dim>
				</port>
			</input>
			<output>
				<port id="2" precision="FP32">
					<dim>1</dim>
					<dim>256</dim>
					<dim>128</dim>
				</port>
			</output>
		</layer>
		<layer id="12" name="Conv_4/Dims5293" type="Const" version="opset1">
			<data element_type="f32" shape="1, 256, 1" offset="370944" size="1024"/>
			<output>
				<port id="0" precision="FP32">
					<dim>1</dim>
					<dim>256</dim>
					<dim>1</dim>
				</port>
			</output>
		</layer>
		<layer id="13" name="Conv_4" type="Add" version="opset1">
			<data auto_broadcast="numpy"/>
			<input>
				<port id="0" precision="FP32">
					<dim>1</dim>
					<dim>256</dim>
					<dim>128</dim>
				</port>
				<port id="1" precision="FP32">
					<dim>1</dim>
					<dim>256</dim>
					<dim>1</dim>
				</port>
			</input>
			<output>
				<port id="2" precision="FP32" names="1002">
					<dim>1</dim>
					<dim>256</dim>
					<dim>128</dim>
				</port>
			</output>
		</layer>
		<layer id="14" name="Relu_5" type="ReLU" version="opset1">
			<input>
				<port id="0" precision="FP32">
					<dim>1</dim>
					<dim>256</dim>
					<dim>128</dim>
				</port>
			</input>
			<output>
				<port id="1" precision="FP32" names="647">
					<dim>1</dim>
					<dim>256</dim>
					<dim>128</dim>
				</port>
			</output>
		</layer>
		<layer id="15" name="encoder.encoder.1.mconv.5.conv.weight" type="Const" version="opset1">
			<data element_type="f32" shape="256, 1, 1, 33" offset="371968" size="33792"/>
			<output>
				<port id="0" precision="FP32" names="encoder.encoder.1.mconv.5.conv.weight">
					<dim>256</dim>
					<dim>1</dim>
					<dim>1</dim>
					<dim>33</dim>
				</port>
			</output>
		</layer>
		<layer id="16" name="Conv_6" type="GroupConvolution" version="opset1">
			<data strides="1" pads_begin="16" pads_end="16" dilations="1" auto_pad="explicit"/>
			<input>
				<port id="0" precision="FP32">
					<dim>1</dim>
					<dim>256</dim>
					<dim>128</dim>
				</port>
				<port id="1" precision="FP32">
					<dim>256</dim>
					<dim>1</dim>
					<dim>1</dim>
					<dim>33</dim>
				</port>
			</input>
			<output>
				<port id="2" precision="FP32" names="648">
					<dim>1</dim>
					<dim>256</dim>
					<dim>128</dim>
				</port>
			</output>
		</layer>
		<layer id="17" name="1006" type="Const" version="opset1">
			<data element_type="f32" shape="256, 256, 1" offset="405760" size="262144"/>
			<output>
				<port id="0" precision="FP32" names="1006">
					<dim>256</dim>
					<dim>256</dim>
					<dim>1</dim>
				</port>
			</output>
		</layer>
		<layer id="18" name="Conv_7/WithoutBiases" type="Convolution" version="opset1">
			<data strides="1" dilations="1" pads_begin="0" pads_end="0" auto_pad="explicit"/>
			<input>
				<port id="0" precision="FP32">
					<dim>1</dim>
					<dim>256</dim>
					<dim>128</dim>
				</port>
				<port id="1" precision="FP32">
					<dim>256</dim>
					<dim>256</dim>
					<dim>1</dim>
				</port>
			</input>
			<output>
				<port id="2" precision="FP32">
					<dim>1</dim>
					<dim>256</dim>
					<dim>128</dim>
				</port>
			</output>
		</layer>
		<layer id="19" name="Conv_7/Dims5395" type="Const" version="opset1">
			<data element_type="f32" shape="1, 256, 1" offset="667904" size="1024"/>
			<output>
				<port id="0" precision="FP32">
					<dim>1</dim>
					<dim>256</dim>
					<dim>1</dim>
				</port>
			</output>
		</layer>
		<layer id="20" name="Conv_7" type="Add" version="opset1">
			<data auto_broadcast="numpy"/>
			<input>
				<port id="0" precision="FP32">
					<dim>1</dim>
					<dim>256</dim>
					<dim>128</dim>
				</port>
				<port id="1" precision="FP32">
					<dim>1</dim>
					<dim>256</dim>
					<dim>1</dim>
				</port>
			</input>
			<output>
				<port id="2" precision="FP32" names="1005">
					<dim>1</dim>
					<dim>256</dim>
					<dim>128</dim>
				</port>
			</output>
		</layer>
		<layer id="21" name="Relu_8" type="ReLU" version="opset1">
			<input>
				<port id="0" precision="FP32">
					<dim>1</dim>
					<dim>256</dim>
					<dim>128</dim>
				</port>
			</input>
			<output>
				<port id="1" precision="FP32" names="651">
					<dim>1</dim>
					<dim>256</dim>
					<dim>128</dim>
				</port>
			</output>
		</layer>
		<layer id="22" name="encoder.encoder.1.mconv.10.conv.weight" type="Const" version="opset1">
			<data element_type="f32" shape="256, 1, 1, 33" offset="668928" size="33792"/>
			<output>
				<port id="0" precision="FP32" names="encoder.encoder.1.mconv.10.conv.weight">
					<dim>256</dim>
					<dim>1</dim>
					<dim>1</dim>
					<dim>33</dim>
				</port>
			</output>
		</layer>
		<layer id="23" name="Conv_9" type="GroupConvolution" version="opset1">
			<data strides="1" pads_begin="16" pads_end="16" dilations="1" auto_pad="explicit"/>
			<input>
				<port id="0" precision="FP32">
					<dim>1</dim>
					<dim>256</dim>
					<dim>128</dim>
				</port>
				<port id="1" precision="FP32">
					<dim>256</dim>
					<dim>1</dim>
					<dim>1</dim>
					<dim>33</dim>
				</port>
			</input>
			<output>
				<port id="2" precision="FP32" names="652">
					<dim>1</dim>
					<dim>256</dim>
					<dim>128</dim>
				</port>
			</output>
		</layer>
		<layer id="24" name="1009" type="Const" version="opset1">
			<data element_type="f32" shape="256, 256, 1" offset="702720" size="262144"/>
			<output>
				<port id="0" precision="FP32" names="1009">
					<dim>256</dim>
					<dim>256</dim>
					<dim>1</dim>
				</port>
			</output>
		</layer>
		<layer id="25" name="Conv_10/WithoutBiases" type="Convolution" version="opset1">
			<data strides="1" dilations="1" pads_begin="0" pads_end="0" auto_pad="explicit"/>
			<input>
				<port id="0" precision="FP32">
					<dim>1</dim>
					<dim>256</dim>
					<dim>128</dim>
				</port>
				<port id="1" precision="FP32">
					<dim>256</dim>
					<dim>256</dim>
					<dim>1</dim>
				</port>
			</input>
			<output>
				<port id="2" precision="FP32">
					<dim>1</dim>
					<dim>256</dim>
					<dim>128</dim>
				</port>
			</output>
		</layer>
		<layer id="26" name="Conv_10/Dims4921" type="Const" version="opset1">
			<data element_type="f32" shape="1, 256, 1" offset="964864" size="1024"/>
			<output>
				<port id="0" precision="FP32">
					<dim>1</dim>
					<dim>256</dim>
					<dim>1</dim>
				</port>
			</output>
		</layer>
		<layer id="27" name="Conv_10" type="Add" version="opset1">
			<data auto_broadcast="numpy"/>
			<input>
				<port id="0" precision="FP32">
					<dim>1</dim>
					<dim>256</dim>
					<dim>128</dim>
				</port>
				<port id="1" precision="FP32">
					<dim>1</dim>
					<dim>256</dim>
					<dim>1</dim>
				</port>
			</input>
			<output>
				<port id="2" precision="FP32" names="1008">
					<dim>1</dim>
					<dim>256</dim>
					<dim>128</dim>
				</port>
			</output>
		</layer>
		<layer id="28" name="Relu_11" type="ReLU" version="opset1">
			<input>
				<port id="0" precision="FP32">
					<dim>1</dim>
					<dim>256</dim>
					<dim>128</dim>
				</port>
			</input>
			<output>
				<port id="1" precision="FP32" names="655">
					<dim>1</dim>
					<dim>256</dim>
					<dim>128</dim>
				</port>
			</output>
		</layer>
		<layer id="29" name="encoder.encoder.1.mconv.15.conv.weight" type="Const" version="opset1">
			<data element_type="f32" shape="256, 1, 1, 33" offset="965888" size="33792"/>
			<output>
				<port id="0" precision="FP32" names="encoder.encoder.1.mconv.15.conv.weight">
					<dim>256</dim>
					<dim>1</dim>
					<dim>1</dim>
					<dim>33</dim>
				</port>
			</output>
		</layer>
		<layer id="30" name="Conv_12" type="GroupConvolution" version="opset1">
			<data strides="1" pads_begin="16" pads_end="16" dilations="1" auto_pad="explicit"/>
			<input>
				<port id="0" precision="FP32">
					<dim>1</dim>
					<dim>256</dim>
					<dim>128</dim>
				</port>
				<port id="1" precision="FP32">
					<dim>256</dim>
					<dim>1</dim>
					<dim>1</dim>
					<dim>33</dim>
				</port>
			</input>
			<output>
				<port id="2" precision="FP32" names="656">
					<dim>1</dim>
					<dim>256</dim>
					<dim>128</dim>
				</port>
			</output>
		</layer>
		<layer id="31" name="1012" type="Const" version="opset1">
			<data element_type="f32" shape="256, 256, 1" offset="999680" size="262144"/>
			<output>
				<port id="0" precision="FP32" names="1012">
					<dim>256</dim>
					<dim>256</dim>
					<dim>1</dim>
				</port>
			</output>
		</layer>
		<layer id="32" name="Conv_13/WithoutBiases" type="Convolution" version="opset1">
			<data strides="1" dilations="1" pads_begin="0" pads_end="0" auto_pad="explicit"/>
			<input>
				<port id="0" precision="FP32">
					<dim>1</dim>
					<dim>256</dim>
					<dim>128</dim>
				</port>
				<port id="1" precision="FP32">
					<dim>256</dim>
					<dim>256</dim>
					<dim>1</dim>
				</port>
			</input>
			<output>
				<port id="2" precision="FP32">
					<dim>1</dim>
					<dim>256</dim>
					<dim>128</dim>
				</port>
			</output>
		</layer>
		<layer id="33" name="Conv_13/Dims5047" type="Const" version="opset1">
			<data element_type="f32" shape="1, 256, 1" offset="1261824" size="1024"/>
			<output>
				<port id="0" precision="FP32">
					<dim>1</dim>
					<dim>256</dim>
					<dim>1</dim>
				</port>
			</output>
		</layer>
		<layer id="34" name="Conv_13" type="Add" version="opset1">
			<data auto_broadcast="numpy"/>
			<input>
				<port id="0" precision="FP32">
					<dim>1</dim>
					<dim>256</dim>
					<dim>128</dim>
				</port>
				<port id="1" precision="FP32">
					<dim>1</dim>
					<dim>256</dim>
					<dim>1</dim>
				</port>
			</input>
			<output>
				<port id="2" precision="FP32" names="1011">
					<dim>1</dim>
					<dim>256</dim>
					<dim>128</dim>
				</port>
			</output>
		</layer>
		<layer id="35" name="Relu_14" type="ReLU" version="opset1">
			<input>
				<port id="0" precision="FP32">
					<dim>1</dim>
					<dim>256</dim>
					<dim>128</dim>
				</port>
			</input>
			<output>
				<port id="1" precision="FP32" names="659">
					<dim>1</dim>
					<dim>256</dim>
					<dim>128</dim>
				</port>
			</output>
		</layer>
		<layer id="36" name="encoder.encoder.1.mconv.20.conv.weight" type="Const" version="opset1">
			<data element_type="f32" shape="256, 1, 1, 33" offset="1262848" size="33792"/>
			<output>
				<port id="0" precision="FP32" names="encoder.encoder.1.mconv.20.conv.weight">
					<dim>256</dim>
					<dim>1</dim>
					<dim>1</dim>
					<dim>33</dim>
				</port>
			</output>
		</layer>
		<layer id="37" name="Conv_15" type="GroupConvolution" version="opset1">
			<data strides="1" pads_begin="16" pads_end="16" dilations="1" auto_pad="explicit"/>
			<input>
				<port id="0" precision="FP32">
					<dim>1</dim>
					<dim>256</dim>
					<dim>128</dim>
				</port>
				<port id="1" precision="FP32">
					<dim>256</dim>
					<dim>1</dim>
					<dim>1</dim>
					<dim>33</dim>
				</port>
			</input>
			<output>
				<port id="2" precision="FP32" names="660">
					<dim>1</dim>
					<dim>256</dim>
					<dim>128</dim>
				</port>
			</output>
		</layer>
		<layer id="38" name="1015" type="Const" version="opset1">
			<data element_type="f32" shape="256, 256, 1" offset="1296640" size="262144"/>
			<output>
				<port id="0" precision="FP32" names="1015">
					<dim>256</dim>
					<dim>256</dim>
					<dim>1</dim>
				</port>
			</output>
		</layer>
		<layer id="39" name="Conv_16/WithoutBiases" type="Convolution" version="opset1">
			<data strides="1" dilations="1" pads_begin="0" pads_end="0" auto_pad="explicit"/>
			<input>
				<port id="0" precision="FP32">
					<dim>1</dim>
					<dim>256</dim>
					<dim>128</dim>
				</port>
				<port id="1" precision="FP32">
					<dim>256</dim>
					<dim>256</dim>
					<dim>1</dim>
				</port>
			</input>
			<output>
				<port id="2" precision="FP32">
					<dim>1</dim>
					<dim>256</dim>
					<dim>128</dim>
				</port>
			</output>
		</layer>
		<layer id="40" name="Conv_16/Dims5167" type="Const" version="opset1">
			<data element_type="f32" shape="1, 256, 1" offset="1558784" size="1024"/>
			<output>
				<port id="0" precision="FP32">
					<dim>1</dim>
					<dim>256</dim>
					<dim>1</dim>
				</port>
			</output>
		</layer>
		<layer id="41" name="Conv_16" type="Add" version="opset1">
			<data auto_broadcast="numpy"/>
			<input>
				<port id="0" precision="FP32">
					<dim>1</dim>
					<dim>256</dim>
					<dim>128</dim>
				</port>
				<port id="1" precision="FP32">
					<dim>1</dim>
					<dim>256</dim>
					<dim>1</dim>
				</port>
			</input>
			<output>
				<port id="2" precision="FP32" names="1014">
					<dim>1</dim>
					<dim>256</dim>
					<dim>128</dim>
				</port>
			</output>
		</layer>
		<layer id="42" name="1018" type="Const" version="opset1">
			<data element_type="f32" shape="256, 256, 1" offset="1559808" size="262144"/>
			<output>
				<port id="0" precision="FP32" names="1018">
					<dim>256</dim>
					<dim>256</dim>
					<dim>1</dim>
				</port>
			</output>
		</layer>
		<layer id="43" name="Conv_17/WithoutBiases" type="Convolution" version="opset1">
			<data strides="1" dilations="1" pads_begin="0" pads_end="0" auto_pad="explicit"/>
			<input>
				<port id="0" precision="FP32">
					<dim>1</dim>
					<dim>256</dim>
					<dim>128</dim>
				</port>
				<port id="1" precision="FP32">
					<dim>256</dim>
					<dim>256</dim>
					<dim>1</dim>
				</port>
			</input>
			<output>
				<port id="2" precision="FP32">
					<dim>1</dim>
					<dim>256</dim>
					<dim>128</dim>
				</port>
			</output>
		</layer>
		<layer id="44" name="Conv_17/Dims4909" type="Const" version="opset1">
			<data element_type="f32" shape="1, 256, 1" offset="1821952" size="1024"/>
			<output>
				<port id="0" precision="FP32">
					<dim>1</dim>
					<dim>256</dim>
					<dim>1</dim>
				</port>
			</output>
		</layer>
		<layer id="45" name="Conv_17" type="Add" version="opset1">
			<data auto_broadcast="numpy"/>
			<input>
				<port id="0" precision="FP32">
					<dim>1</dim>
					<dim>256</dim>
					<dim>128</dim>
				</port>
				<port id="1" precision="FP32">
					<dim>1</dim>
					<dim>256</dim>
					<dim>1</dim>
				</port>
			</input>
			<output>
				<port id="2" precision="FP32" names="1017">
					<dim>1</dim>
					<dim>256</dim>
					<dim>128</dim>
				</port>
			</output>
		</layer>
		<layer id="46" name="Add_18" type="Add" version="opset1">
			<data auto_broadcast="numpy"/>
			<input>
				<port id="0" precision="FP32">
					<dim>1</dim>
					<dim>256</dim>
					<dim>128</dim>
				</port>
				<port id="1" precision="FP32">
					<dim>1</dim>
					<dim>256</dim>
					<dim>128</dim>
				</port>
			</input>
			<output>
				<port id="2" precision="FP32" names="665">
					<dim>1</dim>
					<dim>256</dim>
					<dim>128</dim>
				</port>
			</output>
		</layer>
		<layer id="47" name="Relu_19" type="ReLU" version="opset1">
			<input>
				<port id="0" precision="FP32">
					<dim>1</dim>
					<dim>256</dim>
					<dim>128</dim>
				</port>
			</input>
			<output>
				<port id="1" precision="FP32" names="666">
					<dim>1</dim>
					<dim>256</dim>
					<dim>128</dim>
				</port>
			</output>
		</layer>
		<layer id="48" name="encoder.encoder.2.mconv.0.conv.weight" type="Const" version="opset1">
			<data element_type="f32" shape="256, 1, 1, 33" offset="1822976" size="33792"/>
			<output>
				<port id="0" precision="FP32" names="encoder.encoder.2.mconv.0.conv.weight">
					<dim>256</dim>
					<dim>1</dim>
					<dim>1</dim>
					<dim>33</dim>
				</port>
			</output>
		</layer>
		<layer id="49" name="Conv_20" type="GroupConvolution" version="opset1">
			<data strides="1" pads_begin="16" pads_end="16" dilations="1" auto_pad="explicit"/>
			<input>
				<port id="0" precision="FP32">
					<dim>1</dim>
					<dim>256</dim>
					<dim>128</dim>
				</port>
				<port id="1" precision="FP32">
					<dim>256</dim>
					<dim>1</dim>
					<dim>1</dim>
					<dim>33</dim>
				</port>
			</input>
			<output>
				<port id="2" precision="FP32" names="667">
					<dim>1</dim>
					<dim>256</dim>
					<dim>128</dim>
				</port>
			</output>
		</layer>
		<layer id="50" name="1021" type="Const" version="opset1">
			<data element_type="f32" shape="256, 256, 1" offset="1856768" size="262144"/>
			<output>
				<port id="0" precision="FP32" names="1021">
					<dim>256</dim>
					<dim>256</dim>
					<dim>1</dim>
				</port>
			</output>
		</layer>
		<layer id="51" name="Conv_21/WithoutBiases" type="Convolution" version="opset1">
			<data strides="1" dilations="1" pads_begin="0" pads_end="0" auto_pad="explicit"/>
			<input>
				<port id="0" precision="FP32">
					<dim>1</dim>
					<dim>256</dim>
					<dim>128</dim>
				</port>
				<port id="1" precision="FP32">
					<dim>256</dim>
					<dim>256</dim>
					<dim>1</dim>
				</port>
			</input>
			<output>
				<port id="2" precision="FP32">
					<dim>1</dim>
					<dim>256</dim>
					<dim>128</dim>
				</port>
			</output>
		</layer>
		<layer id="52" name="Conv_21/Dims5035" type="Const" version="opset1">
			<data element_type="f32" shape="1, 256, 1" offset="2118912" size="1024"/>
			<output>
				<port id="0" precision="FP32">
					<dim>1</dim>
					<dim>256</dim>
					<dim>1</dim>
				</port>
			</output>
		</layer>
		<layer id="53" name="Conv_21" type="Add" version="opset1">
			<data auto_broadcast="numpy"/>
			<input>
				<port id="0" precision="FP32">
					<dim>1</dim>
					<dim>256</dim>
					<dim>128</dim>
				</port>
				<port id="1" precision="FP32">
					<dim>1</dim>
					<dim>256</dim>
					<dim>1</dim>
				</port>
			</input>
			<output>
				<port id="2" precision="FP32" names="1020">
					<dim>1</dim>
					<dim>256</dim>
					<dim>128</dim>
				</port>
			</output>
		</layer>
		<layer id="54" name="Relu_22" type="ReLU" version="opset1">
			<input>
				<port id="0" precision="FP32">
					<dim>1</dim>
					<dim>256</dim>
					<dim>128</dim>
				</port>
			</input>
			<output>
				<port id="1" precision="FP32" names="670">
					<dim>1</dim>
					<dim>256</dim>
					<dim>128</dim>
				</port>
			</output>
		</layer>
		<layer id="55" name="encoder.encoder.2.mconv.5.conv.weight" type="Const" version="opset1">
			<data element_type="f32" shape="256, 1, 1, 33" offset="2119936" size="33792"/>
			<output>
				<port id="0" precision="FP32" names="encoder.encoder.2.mconv.5.conv.weight">
					<dim>256</dim>
					<dim>1</dim>
					<dim>1</dim>
					<dim>33</dim>
				</port>
			</output>
		</layer>
		<layer id="56" name="Conv_23" type="GroupConvolution" version="opset1">
			<data strides="1" pads_begin="16" pads_end="16" dilations="1" auto_pad="explicit"/>
			<input>
				<port id="0" precision="FP32">
					<dim>1</dim>
					<dim>256</dim>
					<dim>128</dim>
				</port>
				<port id="1" precision="FP32">
					<dim>256</dim>
					<dim>1</dim>
					<dim>1</dim>
					<dim>33</dim>
				</port>
			</input>
			<output>
				<port id="2" precision="FP32" names="671">
					<dim>1</dim>
					<dim>256</dim>
					<dim>128</dim>
				</port>
			</output>
		</layer>
		<layer id="57" name="1024" type="Const" version="opset1">
			<data element_type="f32" shape="256, 256, 1" offset="2153728" size="262144"/>
			<output>
				<port id="0" precision="FP32" names="1024">
					<dim>256</dim>
					<dim>256</dim>
					<dim>1</dim>
				</port>
			</output>
		</layer>
		<layer id="58" name="Conv_24/WithoutBiases" type="Convolution" version="opset1">
			<data strides="1" dilations="1" pads_begin="0" pads_end="0" auto_pad="explicit"/>
			<input>
				<port id="0" precision="FP32">
					<dim>1</dim>
					<dim>256</dim>
					<dim>128</dim>
				</port>
				<port id="1" precision="FP32">
					<dim>256</dim>
					<dim>256</dim>
					<dim>1</dim>
				</port>
			</input>
			<output>
				<port id="2" precision="FP32">
					<dim>1</dim>
					<dim>256</dim>
					<dim>128</dim>
				</port>
			</output>
		</layer>
		<layer id="59" name="Conv_24/Dims5251" type="Const" version="opset1">
			<data element_type="f32" shape="1, 256, 1" offset="2415872" size="1024"/>
			<output>
				<port id="0" precision="FP32">
					<dim>1</dim>
					<dim>256</dim>
					<dim>1</dim>
				</port>
			</output>
		</layer>
		<layer id="60" name="Conv_24" type="Add" version="opset1">
			<data auto_broadcast="numpy"/>
			<input>
				<port id="0" precision="FP32">
					<dim>1</dim>
					<dim>256</dim>
					<dim>128</dim>
				</port>
				<port id="1" precision="FP32">
					<dim>1</dim>
					<dim>256</dim>
					<dim>1</dim>
				</port>
			</input>
			<output>
				<port id="2" precision="FP32" names="1023">
					<dim>1</dim>
					<dim>256</dim>
					<dim>128</dim>
				</port>
			</output>
		</layer>
		<layer id="61" name="Relu_25" type="ReLU" version="opset1">
			<input>
				<port id="0" precision="FP32">
					<dim>1</dim>
					<dim>256</dim>
					<dim>128</dim>
				</port>
			</input>
			<output>
				<port id="1" precision="FP32" names="674">
					<dim>1</dim>
					<dim>256</dim>
					<dim>128</dim>
				</port>
			</output>
		</layer>
		<layer id="62" name="encoder.encoder.2.mconv.10.conv.weight" type="Const" version="opset1">
			<data element_type="f32" shape="256, 1, 1, 33" offset="2416896" size="33792"/>
			<output>
				<port id="0" precision="FP32" names="encoder.encoder.2.mconv.10.conv.weight">
					<dim>256</dim>
					<dim>1</dim>
					<dim>1</dim>
					<dim>33</dim>
				</port>
			</output>
		</layer>
		<layer id="63" name="Conv_26" type="GroupConvolution" version="opset1">
			<data strides="1" pads_begin="16" pads_end="16" dilations="1" auto_pad="explicit"/>
			<input>
				<port id="0" precision="FP32">
					<dim>1</dim>
					<dim>256</dim>
					<dim>128</dim>
				</port>
				<port id="1" precision="FP32">
					<dim>256</dim>
					<dim>1</dim>
					<dim>1</dim>
					<dim>33</dim>
				</port>
			</input>
			<output>
				<port id="2" precision="FP32" names="675">
					<dim>1</dim>
					<dim>256</dim>
					<dim>128</dim>
				</port>
			</output>
		</layer>
		<layer id="64" name="1027" type="Const" version="opset1">
			<data element_type="f32" shape="256, 256, 1" offset="2450688" size="262144"/>
			<output>
				<port id="0" precision="FP32" names="1027">
					<dim>256</dim>
					<dim>256</dim>
					<dim>1</dim>
				</port>
			</output>
		</layer>
		<layer id="65" name="Conv_27/WithoutBiases" type="Convolution" version="opset1">
			<data strides="1" dilations="1" pads_begin="0" pads_end="0" auto_pad="explicit"/>
			<input>
				<port id="0" precision="FP32">
					<dim>1</dim>
					<dim>256</dim>
					<dim>128</dim>
				</port>
				<port id="1" precision="FP32">
					<dim>256</dim>
					<dim>256</dim>
					<dim>1</dim>
				</port>
			</input>
			<output>
				<port id="2" precision="FP32">
					<dim>1</dim>
					<dim>256</dim>
					<dim>128</dim>
				</port>
			</output>
		</layer>
		<layer id="66" name="Conv_27/Dims4951" type="Const" version="opset1">
			<data element_type="f32" shape="1, 256, 1" offset="2712832" size="1024"/>
			<output>
				<port id="0" precision="FP32">
					<dim>1</dim>
					<dim>256</dim>
					<dim>1</dim>
				</port>
			</output>
		</layer>
		<layer id="67" name="Conv_27" type="Add" version="opset1">
			<data auto_broadcast="numpy"/>
			<input>
				<port id="0" precision="FP32">
					<dim>1</dim>
					<dim>256</dim>
					<dim>128</dim>
				</port>
				<port id="1" precision="FP32">
					<dim>1</dim>
					<dim>256</dim>
					<dim>1</dim>
				</port>
			</input>
			<output>
				<port id="2" precision="FP32" names="1026">
					<dim>1</dim>
					<dim>256</dim>
					<dim>128</dim>
				</port>
			</output>
		</layer>
		<layer id="68" name="Relu_28" type="ReLU" version="opset1">
			<input>
				<port id="0" precision="FP32">
					<dim>1</dim>
					<dim>256</dim>
					<dim>128</dim>
				</port>
			</input>
			<output>
				<port id="1" precision="FP32" names="678">
					<dim>1</dim>
					<dim>256</dim>
					<dim>128</dim>
				</port>
			</output>
		</layer>
		<layer id="69" name="encoder.encoder.2.mconv.15.conv.weight" type="Const" version="opset1">
			<data element_type="f32" shape="256, 1, 1, 33" offset="2713856" size="33792"/>
			<output>
				<port id="0" precision="FP32" names="encoder.encoder.2.mconv.15.conv.weight">
					<dim>256</dim>
					<dim>1</dim>
					<dim>1</dim>
					<dim>33</dim>
				</port>
			</output>
		</layer>
		<layer id="70" name="Conv_29" type="GroupConvolution" version="opset1">
			<data strides="1" pads_begin="16" pads_end="16" dilations="1" auto_pad="explicit"/>
			<input>
				<port id="0" precision="FP32">
					<dim>1</dim>
					<dim>256</dim>
					<dim>128</dim>
				</port>
				<port id="1" precision="FP32">
					<dim>256</dim>
					<dim>1</dim>
					<dim>1</dim>
					<dim>33</dim>
				</port>
			</input>
			<output>
				<port id="2" precision="FP32" names="679">
					<dim>1</dim>
					<dim>256</dim>
					<dim>128</dim>
				</port>
			</output>
		</layer>
		<layer id="71" name="1030" type="Const" version="opset1">
			<data element_type="f32" shape="256, 256, 1" offset="2747648" size="262144"/>
			<output>
				<port id="0" precision="FP32" names="1030">
					<dim>256</dim>
					<dim>256</dim>
					<dim>1</dim>
				</port>
			</output>
		</layer>
		<layer id="72" name="Conv_30/WithoutBiases" type="Convolution" version="opset1">
			<data strides="1" dilations="1" pads_begin="0" pads_end="0" auto_pad="explicit"/>
			<input>
				<port id="0" precision="FP32">
					<dim>1</dim>
					<dim>256</dim>
					<dim>128</dim>
				</port>
				<port id="1" precision="FP32">
					<dim>256</dim>
					<dim>256</dim>
					<dim>1</dim>
				</port>
			</input>
			<output>
				<port id="2" precision="FP32">
					<dim>1</dim>
					<dim>256</dim>
					<dim>128</dim>
				</port>
			</output>
		</layer>
		<layer id="73" name="Conv_30/Dims5329" type="Const" version="opset1">
			<data element_type="f32" shape="1, 256, 1" offset="3009792" size="1024"/>
			<output>
				<port id="0" precision="FP32">
					<dim>1</dim>
					<dim>256</dim>
					<dim>1</dim>
				</port>
			</output>
		</layer>
		<layer id="74" name="Conv_30" type="Add" version="opset1">
			<data auto_broadcast="numpy"/>
			<input>
				<port id="0" precision="FP32">
					<dim>1</dim>
					<dim>256</dim>
					<dim>128</dim>
				</port>
				<port id="1" precision="FP32">
					<dim>1</dim>
					<dim>256</dim>
					<dim>1</dim>
				</port>
			</input>
			<output>
				<port id="2" precision="FP32" names="1029">
					<dim>1</dim>
					<dim>256</dim>
					<dim>128</dim>
				</port>
			</output>
		</layer>
		<layer id="75" name="Relu_31" type="ReLU" version="opset1">
			<input>
				<port id="0" precision="FP32">
					<dim>1</dim>
					<dim>256</dim>
					<dim>128</dim>
				</port>
			</input>
			<output>
				<port id="1" precision="FP32" names="682">
					<dim>1</dim>
					<dim>256</dim>
					<dim>128</dim>
				</port>
			</output>
		</layer>
		<layer id="76" name="encoder.encoder.2.mconv.20.conv.weight" type="Const" version="opset1">
			<data element_type="f32" shape="256, 1, 1, 33" offset="3010816" size="33792"/>
			<output>
				<port id="0" precision="FP32" names="encoder.encoder.2.mconv.20.conv.weight">
					<dim>256</dim>
					<dim>1</dim>
					<dim>1</dim>
					<dim>33</dim>
				</port>
			</output>
		</layer>
		<layer id="77" name="Conv_32" type="GroupConvolution" version="opset1">
			<data strides="1" pads_begin="16" pads_end="16" dilations="1" auto_pad="explicit"/>
			<input>
				<port id="0" precision="FP32">
					<dim>1</dim>
					<dim>256</dim>
					<dim>128</dim>
				</port>
				<port id="1" precision="FP32">
					<dim>256</dim>
					<dim>1</dim>
					<dim>1</dim>
					<dim>33</dim>
				</port>
			</input>
			<output>
				<port id="2" precision="FP32" names="683">
					<dim>1</dim>
					<dim>256</dim>
					<dim>128</dim>
				</port>
			</output>
		</layer>
		<layer id="78" name="1033" type="Const" version="opset1">
			<data element_type="f32" shape="256, 256, 1" offset="3044608" size="262144"/>
			<output>
				<port id="0" precision="FP32" names="1033">
					<dim>256</dim>
					<dim>256</dim>
					<dim>1</dim>
				</port>
			</output>
		</layer>
		<layer id="79" name="Conv_33/WithoutBiases" type="Convolution" version="opset1">
			<data strides="1" dilations="1" pads_begin="0" pads_end="0" auto_pad="explicit"/>
			<input>
				<port id="0" precision="FP32">
					<dim>1</dim>
					<dim>256</dim>
					<dim>128</dim>
				</port>
				<port id="1" precision="FP32">
					<dim>256</dim>
					<dim>256</dim>
					<dim>1</dim>
				</port>
			</input>
			<output>
				<port id="2" precision="FP32">
					<dim>1</dim>
					<dim>256</dim>
					<dim>128</dim>
				</port>
			</output>
		</layer>
		<layer id="80" name="Conv_33/Dims4969" type="Const" version="opset1">
			<data element_type="f32" shape="1, 256, 1" offset="3306752" size="1024"/>
			<output>
				<port id="0" precision="FP32">
					<dim>1</dim>
					<dim>256</dim>
					<dim>1</dim>
				</port>
			</output>
		</layer>
		<layer id="81" name="Conv_33" type="Add" version="opset1">
			<data auto_broadcast="numpy"/>
			<input>
				<port id="0" precision="FP32">
					<dim>1</dim>
					<dim>256</dim>
					<dim>128</dim>
				</port>
				<port id="1" precision="FP32">
					<dim>1</dim>
					<dim>256</dim>
					<dim>1</dim>
				</port>
			</input>
			<output>
				<port id="2" precision="FP32" names="1032">
					<dim>1</dim>
					<dim>256</dim>
					<dim>128</dim>
				</port>
			</output>
		</layer>
		<layer id="82" name="1036" type="Const" version="opset1">
			<data element_type="f32" shape="256, 256, 1" offset="3307776" size="262144"/>
			<output>
				<port id="0" precision="FP32" names="1036">
					<dim>256</dim>
					<dim>256</dim>
					<dim>1</dim>
				</port>
			</output>
		</layer>
		<layer id="83" name="Conv_34/WithoutBiases" type="Convolution" version="opset1">
			<data strides="1" dilations="1" pads_begin="0" pads_end="0" auto_pad="explicit"/>
			<input>
				<port id="0" precision="FP32">
					<dim>1</dim>
					<dim>256</dim>
					<dim>128</dim>
				</port>
				<port id="1" precision="FP32">
					<dim>256</dim>
					<dim>256</dim>
					<dim>1</dim>
				</port>
			</input>
			<output>
				<port id="2" precision="FP32">
					<dim>1</dim>
					<dim>256</dim>
					<dim>128</dim>
				</port>
			</output>
		</layer>
		<layer id="84" name="Conv_34/Dims5203" type="Const" version="opset1">
			<data element_type="f32" shape="1, 256, 1" offset="3569920" size="1024"/>
			<output>
				<port id="0" precision="FP32">
					<dim>1</dim>
					<dim>256</dim>
					<dim>1</dim>
				</port>
			</output>
		</layer>
		<layer id="85" name="Conv_34" type="Add" version="opset1">
			<data auto_broadcast="numpy"/>
			<input>
				<port id="0" precision="FP32">
					<dim>1</dim>
					<dim>256</dim>
					<dim>128</dim>
				</port>
				<port id="1" precision="FP32">
					<dim>1</dim>
					<dim>256</dim>
					<dim>1</dim>
				</port>
			</input>
			<output>
				<port id="2" precision="FP32" names="1035">
					<dim>1</dim>
					<dim>256</dim>
					<dim>128</dim>
				</port>
			</output>
		</layer>
		<layer id="86" name="Add_35" type="Add" version="opset1">
			<data auto_broadcast="numpy"/>
			<input>
				<port id="0" precision="FP32">
					<dim>1</dim>
					<dim>256</dim>
					<dim>128</dim>
				</port>
				<port id="1" precision="FP32">
					<dim>1</dim>
					<dim>256</dim>
					<dim>128</dim>
				</port>
			</input>
			<output>
				<port id="2" precision="FP32" names="688">
					<dim>1</dim>
					<dim>256</dim>
					<dim>128</dim>
				</port>
			</output>
		</layer>
		<layer id="87" name="Relu_36" type="ReLU" version="opset1">
			<input>
				<port id="0" precision="FP32">
					<dim>1</dim>
					<dim>256</dim>
					<dim>128</dim>
				</port>
			</input>
			<output>
				<port id="1" precision="FP32" names="689">
					<dim>1</dim>
					<dim>256</dim>
					<dim>128</dim>
				</port>
			</output>
		</layer>
		<layer id="88" name="encoder.encoder.3.mconv.0.conv.weight" type="Const" version="opset1">
			<data element_type="f32" shape="256, 1, 1, 33" offset="3570944" size="33792"/>
			<output>
				<port id="0" precision="FP32" names="encoder.encoder.3.mconv.0.conv.weight">
					<dim>256</dim>
					<dim>1</dim>
					<dim>1</dim>
					<dim>33</dim>
				</port>
			</output>
		</layer>
		<layer id="89" name="Conv_37" type="GroupConvolution" version="opset1">
			<data strides="1" pads_begin="16" pads_end="16" dilations="1" auto_pad="explicit"/>
			<input>
				<port id="0" precision="FP32">
					<dim>1</dim>
					<dim>256</dim>
					<dim>128</dim>
				</port>
				<port id="1" precision="FP32">
					<dim>256</dim>
					<dim>1</dim>
					<dim>1</dim>
					<dim>33</dim>
				</port>
			</input>
			<output>
				<port id="2" precision="FP32" names="690">
					<dim>1</dim>
					<dim>256</dim>
					<dim>128</dim>
				</port>
			</output>
		</layer>
		<layer id="90" name="1039" type="Const" version="opset1">
			<data element_type="f32" shape="256, 256, 1" offset="3604736" size="262144"/>
			<output>
				<port id="0" precision="FP32" names="1039">
					<dim>256</dim>
					<dim>256</dim>
					<dim>1</dim>
				</port>
			</output>
		</layer>
		<layer id="91" name="Conv_38/WithoutBiases" type="Convolution" version="opset1">
			<data strides="1" dilations="1" pads_begin="0" pads_end="0" auto_pad="explicit"/>
			<input>
				<port id="0" precision="FP32">
					<dim>1</dim>
					<dim>256</dim>
					<dim>128</dim>
				</port>
				<port id="1" precision="FP32">
					<dim>256</dim>
					<dim>256</dim>
					<dim>1</dim>
				</port>
			</input>
			<output>
				<port id="2" precision="FP32">
					<dim>1</dim>
					<dim>256</dim>
					<dim>128</dim>
				</port>
			</output>
		</layer>
		<layer id="92" name="Conv_38/Dims4957" type="Const" version="opset1">
			<data element_type="f32" shape="1, 256, 1" offset="3866880" size="1024"/>
			<output>
				<port id="0" precision="FP32">
					<dim>1</dim>
					<dim>256</dim>
					<dim>1</dim>
				</port>
			</output>
		</layer>
		<layer id="93" name="Conv_38" type="Add" version="opset1">
			<data auto_broadcast="numpy"/>
			<input>
				<port id="0" precision="FP32">
					<dim>1</dim>
					<dim>256</dim>
					<dim>128</dim>
				</port>
				<port id="1" precision="FP32">
					<dim>1</dim>
					<dim>256</dim>
					<dim>1</dim>
				</port>
			</input>
			<output>
				<port id="2" precision="FP32" names="1038">
					<dim>1</dim>
					<dim>256</dim>
					<dim>128</dim>
				</port>
			</output>
		</layer>
		<layer id="94" name="Relu_39" type="ReLU" version="opset1">
			<input>
				<port id="0" precision="FP32">
					<dim>1</dim>
					<dim>256</dim>
					<dim>128</dim>
				</port>
			</input>
			<output>
				<port id="1" precision="FP32" names="693">
					<dim>1</dim>
					<dim>256</dim>
					<dim>128</dim>
				</port>
			</output>
		</layer>
		<layer id="95" name="encoder.encoder.3.mconv.5.conv.weight" type="Const" version="opset1">
			<data element_type="f32" shape="256, 1, 1, 33" offset="3867904" size="33792"/>
			<output>
				<port id="0" precision="FP32" names="encoder.encoder.3.mconv.5.conv.weight">
					<dim>256</dim>
					<dim>1</dim>
					<dim>1</dim>
					<dim>33</dim>
				</port>
			</output>
		</layer>
		<layer id="96" name="Conv_40" type="GroupConvolution" version="opset1">
			<data strides="1" pads_begin="16" pads_end="16" dilations="1" auto_pad="explicit"/>
			<input>
				<port id="0" precision="FP32">
					<dim>1</dim>
					<dim>256</dim>
					<dim>128</dim>
				</port>
				<port id="1" precision="FP32">
					<dim>256</dim>
					<dim>1</dim>
					<dim>1</dim>
					<dim>33</dim>
				</port>
			</input>
			<output>
				<port id="2" precision="FP32" names="694">
					<dim>1</dim>
					<dim>256</dim>
					<dim>128</dim>
				</port>
			</output>
		</layer>
		<layer id="97" name="1042" type="Const" version="opset1">
			<data element_type="f32" shape="256, 256, 1" offset="3901696" size="262144"/>
			<output>
				<port id="0" precision="FP32" names="1042">
					<dim>256</dim>
					<dim>256</dim>
					<dim>1</dim>
				</port>
			</output>
		</layer>
		<layer id="98" name="Conv_41/WithoutBiases" type="Convolution" version="opset1">
			<data strides="1" dilations="1" pads_begin="0" pads_end="0" auto_pad="explicit"/>
			<input>
				<port id="0" precision="FP32">
					<dim>1</dim>
					<dim>256</dim>
					<dim>128</dim>
				</port>
				<port id="1" precision="FP32">
					<dim>256</dim>
					<dim>256</dim>
					<dim>1</dim>
				</port>
			</input>
			<output>
				<port id="2" precision="FP32">
					<dim>1</dim>
					<dim>256</dim>
					<dim>128</dim>
				</port>
			</output>
		</layer>
		<layer id="99" name="Conv_41/Dims4981" type="Const" version="opset1">
			<data element_type="f32" shape="1, 256, 1" offset="4163840" size="1024"/>
			<output>
				<port id="0" precision="FP32">
					<dim>1</dim>
					<dim>256</dim>
					<dim>1</dim>
				</port>
			</output>
		</layer>
		<layer id="100" name="Conv_41" type="Add" version="opset1">
			<data auto_broadcast="numpy"/>
			<input>
				<port id="0" precision="FP32">
					<dim>1</dim>
					<dim>256</dim>
					<dim>128</dim>
				</port>
				<port id="1" precision="FP32">
					<dim>1</dim>
					<dim>256</dim>
					<dim>1</dim>
				</port>
			</input>
			<output>
				<port id="2" precision="FP32" names="1041">
					<dim>1</dim>
					<dim>256</dim>
					<dim>128</dim>
				</port>
			</output>
		</layer>
		<layer id="101" name="Relu_42" type="ReLU" version="opset1">
			<input>
				<port id="0" precision="FP32">
					<dim>1</dim>
					<dim>256</dim>
					<dim>128</dim>
				</port>
			</input>
			<output>
				<port id="1" precision="FP32" names="697">
					<dim>1</dim>
					<dim>256</dim>
					<dim>128</dim>
				</port>
			</output>
		</layer>
		<layer id="102" name="encoder.encoder.3.mconv.10.conv.weight" type="Const" version="opset1">
			<data element_type="f32" shape="256, 1, 1, 33" offset="4164864" size="33792"/>
			<output>
				<port id="0" precision="FP32" names="encoder.encoder.3.mconv.10.conv.weight">
					<dim>256</dim>
					<dim>1</dim>
					<dim>1</dim>
					<dim>33</dim>
				</port>
			</output>
		</layer>
		<layer id="103" name="Conv_43" type="GroupConvolution" version="opset1">
			<data strides="1" pads_begin="16" pads_end="16" dilations="1" auto_pad="explicit"/>
			<input>
				<port id="0" precision="FP32">
					<dim>1</dim>
					<dim>256</dim>
					<dim>128</dim>
				</port>
				<port id="1" precision="FP32">
					<dim>256</dim>
					<dim>1</dim>
					<dim>1</dim>
					<dim>33</dim>
				</port>
			</input>
			<output>
				<port id="2" precision="FP32" names="698">
					<dim>1</dim>
					<dim>256</dim>
					<dim>128</dim>
				</port>
			</output>
		</layer>
		<layer id="104" name="1045" type="Const" version="opset1">
			<data element_type="f32" shape="256, 256, 1" offset="4198656" size="262144"/>
			<output>
				<port id="0" precision="FP32" names="1045">
					<dim>256</dim>
					<dim>256</dim>
					<dim>1</dim>
				</port>
			</output>
		</layer>
		<layer id="105" name="Conv_44/WithoutBiases" type="Convolution" version="opset1">
			<data strides="1" dilations="1" pads_begin="0" pads_end="0" auto_pad="explicit"/>
			<input>
				<port id="0" precision="FP32">
					<dim>1</dim>
					<dim>256</dim>
					<dim>128</dim>
				</port>
				<port id="1" precision="FP32">
					<dim>256</dim>
					<dim>256</dim>
					<dim>1</dim>
				</port>
			</input>
			<output>
				<port id="2" precision="FP32">
					<dim>1</dim>
					<dim>256</dim>
					<dim>128</dim>
				</port>
			</output>
		</layer>
		<layer id="106" name="Conv_44/Dims5155" type="Const" version="opset1">
			<data element_type="f32" shape="1, 256, 1" offset="4460800" size="1024"/>
			<output>
				<port id="0" precision="FP32">
					<dim>1</dim>
					<dim>256</dim>
					<dim>1</dim>
				</port>
			</output>
		</layer>
		<layer id="107" name="Conv_44" type="Add" version="opset1">
			<data auto_broadcast="numpy"/>
			<input>
				<port id="0" precision="FP32">
					<dim>1</dim>
					<dim>256</dim>
					<dim>128</dim>
				</port>
				<port id="1" precision="FP32">
					<dim>1</dim>
					<dim>256</dim>
					<dim>1</dim>
				</port>
			</input>
			<output>
				<port id="2" precision="FP32" names="1044">
					<dim>1</dim>
					<dim>256</dim>
					<dim>128</dim>
				</port>
			</output>
		</layer>
		<layer id="108" name="Relu_45" type="ReLU" version="opset1">
			<input>
				<port id="0" precision="FP32">
					<dim>1</dim>
					<dim>256</dim>
					<dim>128</dim>
				</port>
			</input>
			<output>
				<port id="1" precision="FP32" names="701">
					<dim>1</dim>
					<dim>256</dim>
					<dim>128</dim>
				</port>
			</output>
		</layer>
		<layer id="109" name="encoder.encoder.3.mconv.15.conv.weight" type="Const" version="opset1">
			<data element_type="f32" shape="256, 1, 1, 33" offset="4461824" size="33792"/>
			<output>
				<port id="0" precision="FP32" names="encoder.encoder.3.mconv.15.conv.weight">
					<dim>256</dim>
					<dim>1</dim>
					<dim>1</dim>
					<dim>33</dim>
				</port>
			</output>
		</layer>
		<layer id="110" name="Conv_46" type="GroupConvolution" version="opset1">
			<data strides="1" pads_begin="16" pads_end="16" dilations="1" auto_pad="explicit"/>
			<input>
				<port id="0" precision="FP32">
					<dim>1</dim>
					<dim>256</dim>
					<dim>128</dim>
				</port>
				<port id="1" precision="FP32">
					<dim>256</dim>
					<dim>1</dim>
					<dim>1</dim>
					<dim>33</dim>
				</port>
			</input>
			<output>
				<port id="2" precision="FP32" names="702">
					<dim>1</dim>
					<dim>256</dim>
					<dim>128</dim>
				</port>
			</output>
		</layer>
		<layer id="111" name="1048" type="Const" version="opset1">
			<data element_type="f32" shape="256, 256, 1" offset="4495616" size="262144"/>
			<output>
				<port id="0" precision="FP32" names="1048">
					<dim>256</dim>
					<dim>256</dim>
					<dim>1</dim>
				</port>
			</output>
		</layer>
		<layer id="112" name="Conv_47/WithoutBiases" type="Convolution" version="opset1">
			<data strides="1" dilations="1" pads_begin="0" pads_end="0" auto_pad="explicit"/>
			<input>
				<port id="0" precision="FP32">
					<dim>1</dim>
					<dim>256</dim>
					<dim>128</dim>
				</port>
				<port id="1" precision="FP32">
					<dim>256</dim>
					<dim>256</dim>
					<dim>1</dim>
				</port>
			</input>
			<output>
				<port id="2" precision="FP32">
					<dim>1</dim>
					<dim>256</dim>
					<dim>128</dim>
				</port>
			</output>
		</layer>
		<layer id="113" name="Conv_47/Dims5257" type="Const" version="opset1">
			<data element_type="f32" shape="1, 256, 1" offset="4757760" size="1024"/>
			<output>
				<port id="0" precision="FP32">
					<dim>1</dim>
					<dim>256</dim>
					<dim>1</dim>
				</port>
			</output>
		</layer>
		<layer id="114" name="Conv_47" type="Add" version="opset1">
			<data auto_broadcast="numpy"/>
			<input>
				<port id="0" precision="FP32">
					<dim>1</dim>
					<dim>256</dim>
					<dim>128</dim>
				</port>
				<port id="1" precision="FP32">
					<dim>1</dim>
					<dim>256</dim>
					<dim>1</dim>
				</port>
			</input>
			<output>
				<port id="2" precision="FP32" names="1047">
					<dim>1</dim>
					<dim>256</dim>
					<dim>128</dim>
				</port>
			</output>
		</layer>
		<layer id="115" name="Relu_48" type="ReLU" version="opset1">
			<input>
				<port id="0" precision="FP32">
					<dim>1</dim>
					<dim>256</dim>
					<dim>128</dim>
				</port>
			</input>
			<output>
				<port id="1" precision="FP32" names="705">
					<dim>1</dim>
					<dim>256</dim>
					<dim>128</dim>
				</port>
			</output>
		</layer>
		<layer id="116" name="encoder.encoder.3.mconv.20.conv.weight" type="Const" version="opset1">
			<data element_type="f32" shape="256, 1, 1, 33" offset="4758784" size="33792"/>
			<output>
				<port id="0" precision="FP32" names="encoder.encoder.3.mconv.20.conv.weight">
					<dim>256</dim>
					<dim>1</dim>
					<dim>1</dim>
					<dim>33</dim>
				</port>
			</output>
		</layer>
		<layer id="117" name="Conv_49" type="GroupConvolution" version="opset1">
			<data strides="1" pads_begin="16" pads_end="16" dilations="1" auto_pad="explicit"/>
			<input>
				<port id="0" precision="FP32">
					<dim>1</dim>
					<dim>256</dim>
					<dim>128</dim>
				</port>
				<port id="1" precision="FP32">
					<dim>256</dim>
					<dim>1</dim>
					<dim>1</dim>
					<dim>33</dim>
				</port>
			</input>
			<output>
				<port id="2" precision="FP32" names="706">
					<dim>1</dim>
					<dim>256</dim>
					<dim>128</dim>
				</port>
			</output>
		</layer>
		<layer id="118" name="1051" type="Const" version="opset1">
			<data element_type="f32" shape="256, 256, 1" offset="4792576" size="262144"/>
			<output>
				<port id="0" precision="FP32" names="1051">
					<dim>256</dim>
					<dim>256</dim>
					<dim>1</dim>
				</port>
			</output>
		</layer>
		<layer id="119" name="Conv_50/WithoutBiases" type="Convolution" version="opset1">
			<data strides="1" dilations="1" pads_begin="0" pads_end="0" auto_pad="explicit"/>
			<input>
				<port id="0" precision="FP32">
					<dim>1</dim>
					<dim>256</dim>
					<dim>128</dim>
				</port>
				<port id="1" precision="FP32">
					<dim>256</dim>
					<dim>256</dim>
					<dim>1</dim>
				</port>
			</input>
			<output>
				<port id="2" precision="FP32">
					<dim>1</dim>
					<dim>256</dim>
					<dim>128</dim>
				</port>
			</output>
		</layer>
		<layer id="120" name="Conv_50/Dims5281" type="Const" version="opset1">
			<data element_type="f32" shape="1, 256, 1" offset="5054720" size="1024"/>
			<output>
				<port id="0" precision="FP32">
					<dim>1</dim>
					<dim>256</dim>
					<dim>1</dim>
				</port>
			</output>
		</layer>
		<layer id="121" name="Conv_50" type="Add" version="opset1">
			<data auto_broadcast="numpy"/>
			<input>
				<port id="0" precision="FP32">
					<dim>1</dim>
					<dim>256</dim>
					<dim>128</dim>
				</port>
				<port id="1" precision="FP32">
					<dim>1</dim>
					<dim>256</dim>
					<dim>1</dim>
				</port>
			</input>
			<output>
				<port id="2" precision="FP32" names="1050">
					<dim>1</dim>
					<dim>256</dim>
					<dim>128</dim>
				</port>
			</output>
		</layer>
		<layer id="122" name="1054" type="Const" version="opset1">
			<data element_type="f32" shape="256, 256, 1" offset="5055744" size="262144"/>
			<output>
				<port id="0" precision="FP32" names="1054">
					<dim>256</dim>
					<dim>256</dim>
					<dim>1</dim>
				</port>
			</output>
		</layer>
		<layer id="123" name="Conv_51/WithoutBiases" type="Convolution" version="opset1">
			<data strides="1" dilations="1" pads_begin="0" pads_end="0" auto_pad="explicit"/>
			<input>
				<port id="0" precision="FP32">
					<dim>1</dim>
					<dim>256</dim>
					<dim>128</dim>
				</port>
				<port id="1" precision="FP32">
					<dim>256</dim>
					<dim>256</dim>
					<dim>1</dim>
				</port>
			</input>
			<output>
				<port id="2" precision="FP32">
					<dim>1</dim>
					<dim>256</dim>
					<dim>128</dim>
				</port>
			</output>
		</layer>
		<layer id="124" name="Conv_51/Dims5347" type="Const" version="opset1">
			<data element_type="f32" shape="1, 256, 1" offset="5317888" size="1024"/>
			<output>
				<port id="0" precision="FP32">
					<dim>1</dim>
					<dim>256</dim>
					<dim>1</dim>
				</port>
			</output>
		</layer>
		<layer id="125" name="Conv_51" type="Add" version="opset1">
			<data auto_broadcast="numpy"/>
			<input>
				<port id="0" precision="FP32">
					<dim>1</dim>
					<dim>256</dim>
					<dim>128</dim>
				</port>
				<port id="1" precision="FP32">
					<dim>1</dim>
					<dim>256</dim>
					<dim>1</dim>
				</port>
			</input>
			<output>
				<port id="2" precision="FP32" names="1053">
					<dim>1</dim>
					<dim>256</dim>
					<dim>128</dim>
				</port>
			</output>
		</layer>
		<layer id="126" name="Add_52" type="Add" version="opset1">
			<data auto_broadcast="numpy"/>
			<input>
				<port id="0" precision="FP32">
					<dim>1</dim>
					<dim>256</dim>
					<dim>128</dim>
				</port>
				<port id="1" precision="FP32">
					<dim>1</dim>
					<dim>256</dim>
					<dim>128</dim>
				</port>
			</input>
			<output>
				<port id="2" precision="FP32" names="711">
					<dim>1</dim>
					<dim>256</dim>
					<dim>128</dim>
				</port>
			</output>
		</layer>
		<layer id="127" name="Relu_53" type="ReLU" version="opset1">
			<input>
				<port id="0" precision="FP32">
					<dim>1</dim>
					<dim>256</dim>
					<dim>128</dim>
				</port>
			</input>
			<output>
				<port id="1" precision="FP32" names="712">
					<dim>1</dim>
					<dim>256</dim>
					<dim>128</dim>
				</port>
			</output>
		</layer>
		<layer id="128" name="encoder.encoder.4.mconv.0.conv.weight" type="Const" version="opset1">
			<data element_type="f32" shape="256, 1, 1, 39" offset="5318912" size="39936"/>
			<output>
				<port id="0" precision="FP32" names="encoder.encoder.4.mconv.0.conv.weight">
					<dim>256</dim>
					<dim>1</dim>
					<dim>1</dim>
					<dim>39</dim>
				</port>
			</output>
		</layer>
		<layer id="129" name="Conv_54" type="GroupConvolution" version="opset1">
			<data strides="1" pads_begin="19" pads_end="19" dilations="1" auto_pad="explicit"/>
			<input>
				<port id="0" precision="FP32">
					<dim>1</dim>
					<dim>256</dim>
					<dim>128</dim>
				</port>
				<port id="1" precision="FP32">
					<dim>256</dim>
					<dim>1</dim>
					<dim>1</dim>
					<dim>39</dim>
				</port>
			</input>
			<output>
				<port id="2" precision="FP32" names="713">
					<dim>1</dim>
					<dim>256</dim>
					<dim>128</dim>
				</port>
			</output>
		</layer>
		<layer id="130" name="1057" type="Const" version="opset1">
			<data element_type="f32" shape="256, 256, 1" offset="5358848" size="262144"/>
			<output>
				<port id="0" precision="FP32" names="1057">
					<dim>256</dim>
					<dim>256</dim>
					<dim>1</dim>
				</port>
			</output>
		</layer>
		<layer id="131" name="Conv_55/WithoutBiases" type="Convolution" version="opset1">
			<data strides="1" dilations="1" pads_begin="0" pads_end="0" auto_pad="explicit"/>
			<input>
				<port id="0" precision="FP32">
					<dim>1</dim>
					<dim>256</dim>
					<dim>128</dim>
				</port>
				<port id="1" precision="FP32">
					<dim>256</dim>
					<dim>256</dim>
					<dim>1</dim>
				</port>
			</input>
			<output>
				<port id="2" precision="FP32">
					<dim>1</dim>
					<dim>256</dim>
					<dim>128</dim>
				</port>
			</output>
		</layer>
		<layer id="132" name="Conv_55/Dims4891" type="Const" version="opset1">
			<data element_type="f32" shape="1, 256, 1" offset="5620992" size="1024"/>
			<output>
				<port id="0" precision="FP32">
					<dim>1</dim>
					<dim>256</dim>
					<dim>1</dim>
				</port>
			</output>
		</layer>
		<layer id="133" name="Conv_55" type="Add" version="opset1">
			<data auto_broadcast="numpy"/>
			<input>
				<port id="0" precision="FP32">
					<dim>1</dim>
					<dim>256</dim>
					<dim>128</dim>
				</port>
				<port id="1" precision="FP32">
					<dim>1</dim>
					<dim>256</dim>
					<dim>1</dim>
				</port>
			</input>
			<output>
				<port id="2" precision="FP32" names="1056">
					<dim>1</dim>
					<dim>256</dim>
					<dim>128</dim>
				</port>
			</output>
		</layer>
		<layer id="134" name="Relu_56" type="ReLU" version="opset1">
			<input>
				<port id="0" precision="FP32">
					<dim>1</dim>
					<dim>256</dim>
					<dim>128</dim>
				</port>
			</input>
			<output>
				<port id="1" precision="FP32" names="716">
					<dim>1</dim>
					<dim>256</dim>
					<dim>128</dim>
				</port>
			</output>
		</layer>
		<layer id="135" name="encoder.encoder.4.mconv.5.conv.weight" type="Const" version="opset1">
			<data element_type="f32" shape="256, 1, 1, 39" offset="5622016" size="39936"/>
			<output>
				<port id="0" precision="FP32" names="encoder.encoder.4.mconv.5.conv.weight">
					<dim>256</dim>
					<dim>1</dim>
					<dim>1</dim>
					<dim>39</dim>
				</port>
			</output>
		</layer>
		<layer id="136" name="Conv_57" type="GroupConvolution" version="opset1">
			<data strides="1" pads_begin="19" pads_end="19" dilations="1" auto_pad="explicit"/>
			<input>
				<port id="0" precision="FP32">
					<dim>1</dim>
					<dim>256</dim>
					<dim>128</dim>
				</port>
				<port id="1" precision="FP32">
					<dim>256</dim>
					<dim>1</dim>
					<dim>1</dim>
					<dim>39</dim>
				</port>
			</input>
			<output>
				<port id="2" precision="FP32" names="717">
					<dim>1</dim>
					<dim>256</dim>
					<dim>128</dim>
				</port>
			</output>
		</layer>
		<layer id="137" name="1060" type="Const" version="opset1">
			<data element_type="f32" shape="256, 256, 1" offset="5661952" size="262144"/>
			<output>
				<port id="0" precision="FP32" names="1060">
					<dim>256</dim>
					<dim>256</dim>
					<dim>1</dim>
				</port>
			</output>
		</layer>
		<layer id="138" name="Conv_58/WithoutBiases" type="Convolution" version="opset1">
			<data strides="1" dilations="1" pads_begin="0" pads_end="0" auto_pad="explicit"/>
			<input>
				<port id="0" precision="FP32">
					<dim>1</dim>
					<dim>256</dim>
					<dim>128</dim>
				</port>
				<port id="1" precision="FP32">
					<dim>256</dim>
					<dim>256</dim>
					<dim>1</dim>
				</port>
			</input>
			<output>
				<port id="2" precision="FP32">
					<dim>1</dim>
					<dim>256</dim>
					<dim>128</dim>
				</port>
			</output>
		</layer>
		<layer id="139" name="Conv_58/Dims5317" type="Const" version="opset1">
			<data element_type="f32" shape="1, 256, 1" offset="5924096" size="1024"/>
			<output>
				<port id="0" precision="FP32">
					<dim>1</dim>
					<dim>256</dim>
					<dim>1</dim>
				</port>
			</output>
		</layer>
		<layer id="140" name="Conv_58" type="Add" version="opset1">
			<data auto_broadcast="numpy"/>
			<input>
				<port id="0" precision="FP32">
					<dim>1</dim>
					<dim>256</dim>
					<dim>128</dim>
				</port>
				<port id="1" precision="FP32">
					<dim>1</dim>
					<dim>256</dim>
					<dim>1</dim>
				</port>
			</input>
			<output>
				<port id="2" precision="FP32" names="1059">
					<dim>1</dim>
					<dim>256</dim>
					<dim>128</dim>
				</port>
			</output>
		</layer>
		<layer id="141" name="Relu_59" type="ReLU" version="opset1">
			<input>
				<port id="0" precision="FP32">
					<dim>1</dim>
					<dim>256</dim>
					<dim>128</dim>
				</port>
			</input>
			<output>
				<port id="1" precision="FP32" names="720">
					<dim>1</dim>
					<dim>256</dim>
					<dim>128</dim>
				</port>
			</output>
		</layer>
		<layer id="142" name="encoder.encoder.4.mconv.10.conv.weight" type="Const" version="opset1">
			<data element_type="f32" shape="256, 1, 1, 39" offset="5925120" size="39936"/>
			<output>
				<port id="0" precision="FP32" names="encoder.encoder.4.mconv.10.conv.weight">
					<dim>256</dim>
					<dim>1</dim>
					<dim>1</dim>
					<dim>39</dim>
				</port>
			</output>
		</layer>
		<layer id="143" name="Conv_60" type="GroupConvolution" version="opset1">
			<data strides="1" pads_begin="19" pads_end="19" dilations="1" auto_pad="explicit"/>
			<input>
				<port id="0" precision="FP32">
					<dim>1</dim>
					<dim>256</dim>
					<dim>128</dim>
				</port>
				<port id="1" precision="FP32">
					<dim>256</dim>
					<dim>1</dim>
					<dim>1</dim>
					<dim>39</dim>
				</port>
			</input>
			<output>
				<port id="2" precision="FP32" names="721">
					<dim>1</dim>
					<dim>256</dim>
					<dim>128</dim>
				</port>
			</output>
		</layer>
		<layer id="144" name="1063" type="Const" version="opset1">
			<data element_type="f32" shape="256, 256, 1" offset="5965056" size="262144"/>
			<output>
				<port id="0" precision="FP32" names="1063">
					<dim>256</dim>
					<dim>256</dim>
					<dim>1</dim>
				</port>
			</output>
		</layer>
		<layer id="145" name="Conv_61/WithoutBiases" type="Convolution" version="opset1">
			<data strides="1" dilations="1" pads_begin="0" pads_end="0" auto_pad="explicit"/>
			<input>
				<port id="0" precision="FP32">
					<dim>1</dim>
					<dim>256</dim>
					<dim>128</dim>
				</port>
				<port id="1" precision="FP32">
					<dim>256</dim>
					<dim>256</dim>
					<dim>1</dim>
				</port>
			</input>
			<output>
				<port id="2" precision="FP32">
					<dim>1</dim>
					<dim>256</dim>
					<dim>128</dim>
				</port>
			</output>
		</layer>
		<layer id="146" name="Conv_61/Dims5083" type="Const" version="opset1">
			<data element_type="f32" shape="1, 256, 1" offset="6227200" size="1024"/>
			<output>
				<port id="0" precision="FP32">
					<dim>1</dim>
					<dim>256</dim>
					<dim>1</dim>
				</port>
			</output>
		</layer>
		<layer id="147" name="Conv_61" type="Add" version="opset1">
			<data auto_broadcast="numpy"/>
			<input>
				<port id="0" precision="FP32">
					<dim>1</dim>
					<dim>256</dim>
					<dim>128</dim>
				</port>
				<port id="1" precision="FP32">
					<dim>1</dim>
					<dim>256</dim>
					<dim>1</dim>
				</port>
			</input>
			<output>
				<port id="2" precision="FP32" names="1062">
					<dim>1</dim>
					<dim>256</dim>
					<dim>128</dim>
				</port>
			</output>
		</layer>
		<layer id="148" name="Relu_62" type="ReLU" version="opset1">
			<input>
				<port id="0" precision="FP32">
					<dim>1</dim>
					<dim>256</dim>
					<dim>128</dim>
				</port>
			</input>
			<output>
				<port id="1" precision="FP32" names="724">
					<dim>1</dim>
					<dim>256</dim>
					<dim>128</dim>
				</port>
			</output>
		</layer>
		<layer id="149" name="encoder.encoder.4.mconv.15.conv.weight" type="Const" version="opset1">
			<data element_type="f32" shape="256, 1, 1, 39" offset="6228224" size="39936"/>
			<output>
				<port id="0" precision="FP32" names="encoder.encoder.4.mconv.15.conv.weight">
					<dim>256</dim>
					<dim>1</dim>
					<dim>1</dim>
					<dim>39</dim>
				</port>
			</output>
		</layer>
		<layer id="150" name="Conv_63" type="GroupConvolution" version="opset1">
			<data strides="1" pads_begin="19" pads_end="19" dilations="1" auto_pad="explicit"/>
			<input>
				<port id="0" precision="FP32">
					<dim>1</dim>
					<dim>256</dim>
					<dim>128</dim>
				</port>
				<port id="1" precision="FP32">
					<dim>256</dim>
					<dim>1</dim>
					<dim>1</dim>
					<dim>39</dim>
				</port>
			</input>
			<output>
				<port id="2" precision="FP32" names="725">
					<dim>1</dim>
					<dim>256</dim>
					<dim>128</dim>
				</port>
			</output>
		</layer>
		<layer id="151" name="1066" type="Const" version="opset1">
			<data element_type="f32" shape="256, 256, 1" offset="6268160" size="262144"/>
			<output>
				<port id="0" precision="FP32" names="1066">
					<dim>256</dim>
					<dim>256</dim>
					<dim>1</dim>
				</port>
			</output>
		</layer>
		<layer id="152" name="Conv_64/WithoutBiases" type="Convolution" version="opset1">
			<data strides="1" dilations="1" pads_begin="0" pads_end="0" auto_pad="explicit"/>
			<input>
				<port id="0" precision="FP32">
					<dim>1</dim>
					<dim>256</dim>
					<dim>128</dim>
				</port>
				<port id="1" precision="FP32">
					<dim>256</dim>
					<dim>256</dim>
					<dim>1</dim>
				</port>
			</input>
			<output>
				<port id="2" precision="FP32">
					<dim>1</dim>
					<dim>256</dim>
					<dim>128</dim>
				</port>
			</output>
		</layer>
		<layer id="153" name="Conv_64/Dims5239" type="Const" version="opset1">
			<data element_type="f32" shape="1, 256, 1" offset="6530304" size="1024"/>
			<output>
				<port id="0" precision="FP32">
					<dim>1</dim>
					<dim>256</dim>
					<dim>1</dim>
				</port>
			</output>
		</layer>
		<layer id="154" name="Conv_64" type="Add" version="opset1">
			<data auto_broadcast="numpy"/>
			<input>
				<port id="0" precision="FP32">
					<dim>1</dim>
					<dim>256</dim>
					<dim>128</dim>
				</port>
				<port id="1" precision="FP32">
					<dim>1</dim>
					<dim>256</dim>
					<dim>1</dim>
				</port>
			</input>
			<output>
				<port id="2" precision="FP32" names="1065">
					<dim>1</dim>
					<dim>256</dim>
					<dim>128</dim>
				</port>
			</output>
		</layer>
		<layer id="155" name="Relu_65" type="ReLU" version="opset1">
			<input>
				<port id="0" precision="FP32">
					<dim>1</dim>
					<dim>256</dim>
					<dim>128</dim>
				</port>
			</input>
			<output>
				<port id="1" precision="FP32" names="728">
					<dim>1</dim>
					<dim>256</dim>
					<dim>128</dim>
				</port>
			</output>
		</layer>
		<layer id="156" name="encoder.encoder.4.mconv.20.conv.weight" type="Const" version="opset1">
			<data element_type="f32" shape="256, 1, 1, 39" offset="6531328" size="39936"/>
			<output>
				<port id="0" precision="FP32" names="encoder.encoder.4.mconv.20.conv.weight">
					<dim>256</dim>
					<dim>1</dim>
					<dim>1</dim>
					<dim>39</dim>
				</port>
			</output>
		</layer>
		<layer id="157" name="Conv_66" type="GroupConvolution" version="opset1">
			<data strides="1" pads_begin="19" pads_end="19" dilations="1" auto_pad="explicit"/>
			<input>
				<port id="0" precision="FP32">
					<dim>1</dim>
					<dim>256</dim>
					<dim>128</dim>
				</port>
				<port id="1" precision="FP32">
					<dim>256</dim>
					<dim>1</dim>
					<dim>1</dim>
					<dim>39</dim>
				</port>
			</input>
			<output>
				<port id="2" precision="FP32" names="729">
					<dim>1</dim>
					<dim>256</dim>
					<dim>128</dim>
				</port>
			</output>
		</layer>
		<layer id="158" name="1069" type="Const" version="opset1">
			<data element_type="f32" shape="256, 256, 1" offset="6571264" size="262144"/>
			<output>
				<port id="0" precision="FP32" names="1069">
					<dim>256</dim>
					<dim>256</dim>
					<dim>1</dim>
				</port>
			</output>
		</layer>
		<layer id="159" name="Conv_67/WithoutBiases" type="Convolution" version="opset1">
			<data strides="1" dilations="1" pads_begin="0" pads_end="0" auto_pad="explicit"/>
			<input>
				<port id="0" precision="FP32">
					<dim>1</dim>
					<dim>256</dim>
					<dim>128</dim>
				</port>
				<port id="1" precision="FP32">
					<dim>256</dim>
					<dim>256</dim>
					<dim>1</dim>
				</port>
			</input>
			<output>
				<port id="2" precision="FP32">
					<dim>1</dim>
					<dim>256</dim>
					<dim>128</dim>
				</port>
			</output>
		</layer>
		<layer id="160" name="Conv_67/Dims4993" type="Const" version="opset1">
			<data element_type="f32" shape="1, 256, 1" offset="6833408" size="1024"/>
			<output>
				<port id="0" precision="FP32">
					<dim>1</dim>
					<dim>256</dim>
					<dim>1</dim>
				</port>
			</output>
		</layer>
		<layer id="161" name="Conv_67" type="Add" version="opset1">
			<data auto_broadcast="numpy"/>
			<input>
				<port id="0" precision="FP32">
					<dim>1</dim>
					<dim>256</dim>
					<dim>128</dim>
				</port>
				<port id="1" precision="FP32">
					<dim>1</dim>
					<dim>256</dim>
					<dim>1</dim>
				</port>
			</input>
			<output>
				<port id="2" precision="FP32" names="1068">
					<dim>1</dim>
					<dim>256</dim>
					<dim>128</dim>
				</port>
			</output>
		</layer>
		<layer id="162" name="1072" type="Const" version="opset1">
			<data element_type="f32" shape="256, 256, 1" offset="6834432" size="262144"/>
			<output>
				<port id="0" precision="FP32" names="1072">
					<dim>256</dim>
					<dim>256</dim>
					<dim>1</dim>
				</port>
			</output>
		</layer>
		<layer id="163" name="Conv_68/WithoutBiases" type="Convolution" version="opset1">
			<data strides="1" dilations="1" pads_begin="0" pads_end="0" auto_pad="explicit"/>
			<input>
				<port id="0" precision="FP32">
					<dim>1</dim>
					<dim>256</dim>
					<dim>128</dim>
				</port>
				<port id="1" precision="FP32">
					<dim>256</dim>
					<dim>256</dim>
					<dim>1</dim>
				</port>
			</input>
			<output>
				<port id="2" precision="FP32">
					<dim>1</dim>
					<dim>256</dim>
					<dim>128</dim>
				</port>
			</output>
		</layer>
		<layer id="164" name="Conv_68/Dims5077" type="Const" version="opset1">
			<data element_type="f32" shape="1, 256, 1" offset="7096576" size="1024"/>
			<output>
				<port id="0" precision="FP32">
					<dim>1</dim>
					<dim>256</dim>
					<dim>1</dim>
				</port>
			</output>
		</layer>
		<layer id="165" name="Conv_68" type="Add" version="opset1">
			<data auto_broadcast="numpy"/>
			<input>
				<port id="0" precision="FP32">
					<dim>1</dim>
					<dim>256</dim>
					<dim>128</dim>
				</port>
				<port id="1" precision="FP32">
					<dim>1</dim>
					<dim>256</dim>
					<dim>1</dim>
				</port>
			</input>
			<output>
				<port id="2" precision="FP32" names="1071">
					<dim>1</dim>
					<dim>256</dim>
					<dim>128</dim>
				</port>
			</output>
		</layer>
		<layer id="166" name="Add_69" type="Add" version="opset1">
			<data auto_broadcast="numpy"/>
			<input>
				<port id="0" precision="FP32">
					<dim>1</dim>
					<dim>256</dim>
					<dim>128</dim>
				</port>
				<port id="1" precision="FP32">
					<dim>1</dim>
					<dim>256</dim>
					<dim>128</dim>
				</port>
			</input>
			<output>
				<port id="2" precision="FP32" names="734">
					<dim>1</dim>
					<dim>256</dim>
					<dim>128</dim>
				</port>
			</output>
		</layer>
		<layer id="167" name="Relu_70" type="ReLU" version="opset1">
			<input>
				<port id="0" precision="FP32">
					<dim>1</dim>
					<dim>256</dim>
					<dim>128</dim>
				</port>
			</input>
			<output>
				<port id="1" precision="FP32" names="735">
					<dim>1</dim>
					<dim>256</dim>
					<dim>128</dim>
				</port>
			</output>
		</layer>
		<layer id="168" name="encoder.encoder.5.mconv.0.conv.weight" type="Const" version="opset1">
			<data element_type="f32" shape="256, 1, 1, 39" offset="7097600" size="39936"/>
			<output>
				<port id="0" precision="FP32" names="encoder.encoder.5.mconv.0.conv.weight">
					<dim>256</dim>
					<dim>1</dim>
					<dim>1</dim>
					<dim>39</dim>
				</port>
			</output>
		</layer>
		<layer id="169" name="Conv_71" type="GroupConvolution" version="opset1">
			<data strides="1" pads_begin="19" pads_end="19" dilations="1" auto_pad="explicit"/>
			<input>
				<port id="0" precision="FP32">
					<dim>1</dim>
					<dim>256</dim>
					<dim>128</dim>
				</port>
				<port id="1" precision="FP32">
					<dim>256</dim>
					<dim>1</dim>
					<dim>1</dim>
					<dim>39</dim>
				</port>
			</input>
			<output>
				<port id="2" precision="FP32" names="736">
					<dim>1</dim>
					<dim>256</dim>
					<dim>128</dim>
				</port>
			</output>
		</layer>
		<layer id="170" name="1075" type="Const" version="opset1">
			<data element_type="f32" shape="256, 256, 1" offset="7137536" size="262144"/>
			<output>
				<port id="0" precision="FP32" names="1075">
					<dim>256</dim>
					<dim>256</dim>
					<dim>1</dim>
				</port>
			</output>
		</layer>
		<layer id="171" name="Conv_72/WithoutBiases" type="Convolution" version="opset1">
			<data strides="1" dilations="1" pads_begin="0" pads_end="0" auto_pad="explicit"/>
			<input>
				<port id="0" precision="FP32">
					<dim>1</dim>
					<dim>256</dim>
					<dim>128</dim>
				</port>
				<port id="1" precision="FP32">
					<dim>256</dim>
					<dim>256</dim>
					<dim>1</dim>
				</port>
			</input>
			<output>
				<port id="2" precision="FP32">
					<dim>1</dim>
					<dim>256</dim>
					<dim>128</dim>
				</port>
			</output>
		</layer>
		<layer id="172" name="Conv_72/Dims5287" type="Const" version="opset1">
			<data element_type="f32" shape="1, 256, 1" offset="7399680" size="1024"/>
			<output>
				<port id="0" precision="FP32">
					<dim>1</dim>
					<dim>256</dim>
					<dim>1</dim>
				</port>
			</output>
		</layer>
		<layer id="173" name="Conv_72" type="Add" version="opset1">
			<data auto_broadcast="numpy"/>
			<input>
				<port id="0" precision="FP32">
					<dim>1</dim>
					<dim>256</dim>
					<dim>128</dim>
				</port>
				<port id="1" precision="FP32">
					<dim>1</dim>
					<dim>256</dim>
					<dim>1</dim>
				</port>
			</input>
			<output>
				<port id="2" precision="FP32" names="1074">
					<dim>1</dim>
					<dim>256</dim>
					<dim>128</dim>
				</port>
			</output>
		</layer>
		<layer id="174" name="Relu_73" type="ReLU" version="opset1">
			<input>
				<port id="0" precision="FP32">
					<dim>1</dim>
					<dim>256</dim>
					<dim>128</dim>
				</port>
			</input>
			<output>
				<port id="1" precision="FP32" names="739">
					<dim>1</dim>
					<dim>256</dim>
					<dim>128</dim>
				</port>
			</output>
		</layer>
		<layer id="175" name="encoder.encoder.5.mconv.5.conv.weight" type="Const" version="opset1">
			<data element_type="f32" shape="256, 1, 1, 39" offset="7400704" size="39936"/>
			<output>
				<port id="0" precision="FP32" names="encoder.encoder.5.mconv.5.conv.weight">
					<dim>256</dim>
					<dim>1</dim>
					<dim>1</dim>
					<dim>39</dim>
				</port>
			</output>
		</layer>
		<layer id="176" name="Conv_74" type="GroupConvolution" version="opset1">
			<data strides="1" pads_begin="19" pads_end="19" dilations="1" auto_pad="explicit"/>
			<input>
				<port id="0" precision="FP32">
					<dim>1</dim>
					<dim>256</dim>
					<dim>128</dim>
				</port>
				<port id="1" precision="FP32">
					<dim>256</dim>
					<dim>1</dim>
					<dim>1</dim>
					<dim>39</dim>
				</port>
			</input>
			<output>
				<port id="2" precision="FP32" names="740">
					<dim>1</dim>
					<dim>256</dim>
					<dim>128</dim>
				</port>
			</output>
		</layer>
		<layer id="177" name="1078" type="Const" version="opset1">
			<data element_type="f32" shape="256, 256, 1" offset="7440640" size="262144"/>
			<output>
				<port id="0" precision="FP32" names="1078">
					<dim>256</dim>
					<dim>256</dim>
					<dim>1</dim>
				</port>
			</output>
		</layer>
		<layer id="178" name="Conv_75/WithoutBiases" type="Convolution" version="opset1">
			<data strides="1" dilations="1" pads_begin="0" pads_end="0" auto_pad="explicit"/>
			<input>
				<port id="0" precision="FP32">
					<dim>1</dim>
					<dim>256</dim>
					<dim>128</dim>
				</port>
				<port id="1" precision="FP32">
					<dim>256</dim>
					<dim>256</dim>
					<dim>1</dim>
				</port>
			</input>
			<output>
				<port id="2" precision="FP32">
					<dim>1</dim>
					<dim>256</dim>
					<dim>128</dim>
				</port>
			</output>
		</layer>
		<layer id="179" name="Conv_75/Dims5419" type="Const" version="opset1">
			<data element_type="f32" shape="1, 256, 1" offset="7702784" size="1024"/>
			<output>
				<port id="0" precision="FP32">
					<dim>1</dim>
					<dim>256</dim>
					<dim>1</dim>
				</port>
			</output>
		</layer>
		<layer id="180" name="Conv_75" type="Add" version="opset1">
			<data auto_broadcast="numpy"/>
			<input>
				<port id="0" precision="FP32">
					<dim>1</dim>
					<dim>256</dim>
					<dim>128</dim>
				</port>
				<port id="1" precision="FP32">
					<dim>1</dim>
					<dim>256</dim>
					<dim>1</dim>
				</port>
			</input>
			<output>
				<port id="2" precision="FP32" names="1077">
					<dim>1</dim>
					<dim>256</dim>
					<dim>128</dim>
				</port>
			</output>
		</layer>
		<layer id="181" name="Relu_76" type="ReLU" version="opset1">
			<input>
				<port id="0" precision="FP32">
					<dim>1</dim>
					<dim>256</dim>
					<dim>128</dim>
				</port>
			</input>
			<output>
				<port id="1" precision="FP32" names="743">
					<dim>1</dim>
					<dim>256</dim>
					<dim>128</dim>
				</port>
			</output>
		</layer>
		<layer id="182" name="encoder.encoder.5.mconv.10.conv.weight" type="Const" version="opset1">
			<data element_type="f32" shape="256, 1, 1, 39" offset="7703808" size="39936"/>
			<output>
				<port id="0" precision="FP32" names="encoder.encoder.5.mconv.10.conv.weight">
					<dim>256</dim>
					<dim>1</dim>
					<dim>1</dim>
					<dim>39</dim>
				</port>
			</output>
		</layer>
		<layer id="183" name="Conv_77" type="GroupConvolution" version="opset1">
			<data strides="1" pads_begin="19" pads_end="19" dilations="1" auto_pad="explicit"/>
			<input>
				<port id="0" precision="FP32">
					<dim>1</dim>
					<dim>256</dim>
					<dim>128</dim>
				</port>
				<port id="1" precision="FP32">
					<dim>256</dim>
					<dim>1</dim>
					<dim>1</dim>
					<dim>39</dim>
				</port>
			</input>
			<output>
				<port id="2" precision="FP32" names="744">
					<dim>1</dim>
					<dim>256</dim>
					<dim>128</dim>
				</port>
			</output>
		</layer>
		<layer id="184" name="1081" type="Const" version="opset1">
			<data element_type="f32" shape="256, 256, 1" offset="7743744" size="262144"/>
			<output>
				<port id="0" precision="FP32" names="1081">
					<dim>256</dim>
					<dim>256</dim>
					<dim>1</dim>
				</port>
			</output>
		</layer>
		<layer id="185" name="Conv_78/WithoutBiases" type="Convolution" version="opset1">
			<data strides="1" dilations="1" pads_begin="0" pads_end="0" auto_pad="explicit"/>
			<input>
				<port id="0" precision="FP32">
					<dim>1</dim>
					<dim>256</dim>
					<dim>128</dim>
				</port>
				<port id="1" precision="FP32">
					<dim>256</dim>
					<dim>256</dim>
					<dim>1</dim>
				</port>
			</input>
			<output>
				<port id="2" precision="FP32">
					<dim>1</dim>
					<dim>256</dim>
					<dim>128</dim>
				</port>
			</output>
		</layer>
		<layer id="186" name="Conv_78/Dims4903" type="Const" version="opset1">
			<data element_type="f32" shape="1, 256, 1" offset="8005888" size="1024"/>
			<output>
				<port id="0" precision="FP32">
					<dim>1</dim>
					<dim>256</dim>
					<dim>1</dim>
				</port>
			</output>
		</layer>
		<layer id="187" name="Conv_78" type="Add" version="opset1">
			<data auto_broadcast="numpy"/>
			<input>
				<port id="0" precision="FP32">
					<dim>1</dim>
					<dim>256</dim>
					<dim>128</dim>
				</port>
				<port id="1" precision="FP32">
					<dim>1</dim>
					<dim>256</dim>
					<dim>1</dim>
				</port>
			</input>
			<output>
				<port id="2" precision="FP32" names="1080">
					<dim>1</dim>
					<dim>256</dim>
					<dim>128</dim>
				</port>
			</output>
		</layer>
		<layer id="188" name="Relu_79" type="ReLU" version="opset1">
			<input>
				<port id="0" precision="FP32">
					<dim>1</dim>
					<dim>256</dim>
					<dim>128</dim>
				</port>
			</input>
			<output>
				<port id="1" precision="FP32" names="747">
					<dim>1</dim>
					<dim>256</dim>
					<dim>128</dim>
				</port>
			</output>
		</layer>
		<layer id="189" name="encoder.encoder.5.mconv.15.conv.weight" type="Const" version="opset1">
			<data element_type="f32" shape="256, 1, 1, 39" offset="8006912" size="39936"/>
			<output>
				<port id="0" precision="FP32" names="encoder.encoder.5.mconv.15.conv.weight">
					<dim>256</dim>
					<dim>1</dim>
					<dim>1</dim>
					<dim>39</dim>
				</port>
			</output>
		</layer>
		<layer id="190" name="Conv_80" type="GroupConvolution" version="opset1">
			<data strides="1" pads_begin="19" pads_end="19" dilations="1" auto_pad="explicit"/>
			<input>
				<port id="0" precision="FP32">
					<dim>1</dim>
					<dim>256</dim>
					<dim>128</dim>
				</port>
				<port id="1" precision="FP32">
					<dim>256</dim>
					<dim>1</dim>
					<dim>1</dim>
					<dim>39</dim>
				</port>
			</input>
			<output>
				<port id="2" precision="FP32" names="748">
					<dim>1</dim>
					<dim>256</dim>
					<dim>128</dim>
				</port>
			</output>
		</layer>
		<layer id="191" name="1084" type="Const" version="opset1">
			<data element_type="f32" shape="256, 256, 1" offset="8046848" size="262144"/>
			<output>
				<port id="0" precision="FP32" names="1084">
					<dim>256</dim>
					<dim>256</dim>
					<dim>1</dim>
				</port>
			</output>
		</layer>
		<layer id="192" name="Conv_81/WithoutBiases" type="Convolution" version="opset1">
			<data strides="1" dilations="1" pads_begin="0" pads_end="0" auto_pad="explicit"/>
			<input>
				<port id="0" precision="FP32">
					<dim>1</dim>
					<dim>256</dim>
					<dim>128</dim>
				</port>
				<port id="1" precision="FP32">
					<dim>256</dim>
					<dim>256</dim>
					<dim>1</dim>
				</port>
			</input>
			<output>
				<port id="2" precision="FP32">
					<dim>1</dim>
					<dim>256</dim>
					<dim>128</dim>
				</port>
			</output>
		</layer>
		<layer id="193" name="Conv_81/Dims5149" type="Const" version="opset1">
			<data element_type="f32" shape="1, 256, 1" offset="8308992" size="1024"/>
			<output>
				<port id="0" precision="FP32">
					<dim>1</dim>
					<dim>256</dim>
					<dim>1</dim>
				</port>
			</output>
		</layer>
		<layer id="194" name="Conv_81" type="Add" version="opset1">
			<data auto_broadcast="numpy"/>
			<input>
				<port id="0" precision="FP32">
					<dim>1</dim>
					<dim>256</dim>
					<dim>128</dim>
				</port>
				<port id="1" precision="FP32">
					<dim>1</dim>
					<dim>256</dim>
					<dim>1</dim>
				</port>
			</input>
			<output>
				<port id="2" precision="FP32" names="1083">
					<dim>1</dim>
					<dim>256</dim>
					<dim>128</dim>
				</port>
			</output>
		</layer>
		<layer id="195" name="Relu_82" type="ReLU" version="opset1">
			<input>
				<port id="0" precision="FP32">
					<dim>1</dim>
					<dim>256</dim>
					<dim>128</dim>
				</port>
			</input>
			<output>
				<port id="1" precision="FP32" names="751">
					<dim>1</dim>
					<dim>256</dim>
					<dim>128</dim>
				</port>
			</output>
		</layer>
		<layer id="196" name="encoder.encoder.5.mconv.20.conv.weight" type="Const" version="opset1">
			<data element_type="f32" shape="256, 1, 1, 39" offset="8310016" size="39936"/>
			<output>
				<port id="0" precision="FP32" names="encoder.encoder.5.mconv.20.conv.weight">
					<dim>256</dim>
					<dim>1</dim>
					<dim>1</dim>
					<dim>39</dim>
				</port>
			</output>
		</layer>
		<layer id="197" name="Conv_83" type="GroupConvolution" version="opset1">
			<data strides="1" pads_begin="19" pads_end="19" dilations="1" auto_pad="explicit"/>
			<input>
				<port id="0" precision="FP32">
					<dim>1</dim>
					<dim>256</dim>
					<dim>128</dim>
				</port>
				<port id="1" precision="FP32">
					<dim>256</dim>
					<dim>1</dim>
					<dim>1</dim>
					<dim>39</dim>
				</port>
			</input>
			<output>
				<port id="2" precision="FP32" names="752">
					<dim>1</dim>
					<dim>256</dim>
					<dim>128</dim>
				</port>
			</output>
		</layer>
		<layer id="198" name="1087" type="Const" version="opset1">
			<data element_type="f32" shape="256, 256, 1" offset="8349952" size="262144"/>
			<output>
				<port id="0" precision="FP32" names="1087">
					<dim>256</dim>
					<dim>256</dim>
					<dim>1</dim>
				</port>
			</output>
		</layer>
		<layer id="199" name="Conv_84/WithoutBiases" type="Convolution" version="opset1">
			<data strides="1" dilations="1" pads_begin="0" pads_end="0" auto_pad="explicit"/>
			<input>
				<port id="0" precision="FP32">
					<dim>1</dim>
					<dim>256</dim>
					<dim>128</dim>
				</port>
				<port id="1" precision="FP32">
					<dim>256</dim>
					<dim>256</dim>
					<dim>1</dim>
				</port>
			</input>
			<output>
				<port id="2" precision="FP32">
					<dim>1</dim>
					<dim>256</dim>
					<dim>128</dim>
				</port>
			</output>
		</layer>
		<layer id="200" name="Conv_84/Dims5389" type="Const" version="opset1">
			<data element_type="f32" shape="1, 256, 1" offset="8612096" size="1024"/>
			<output>
				<port id="0" precision="FP32">
					<dim>1</dim>
					<dim>256</dim>
					<dim>1</dim>
				</port>
			</output>
		</layer>
		<layer id="201" name="Conv_84" type="Add" version="opset1">
			<data auto_broadcast="numpy"/>
			<input>
				<port id="0" precision="FP32">
					<dim>1</dim>
					<dim>256</dim>
					<dim>128</dim>
				</port>
				<port id="1" precision="FP32">
					<dim>1</dim>
					<dim>256</dim>
					<dim>1</dim>
				</port>
			</input>
			<output>
				<port id="2" precision="FP32" names="1086">
					<dim>1</dim>
					<dim>256</dim>
					<dim>128</dim>
				</port>
			</output>
		</layer>
		<layer id="202" name="1090" type="Const" version="opset1">
			<data element_type="f32" shape="256, 256, 1" offset="8613120" size="262144"/>
			<output>
				<port id="0" precision="FP32" names="1090">
					<dim>256</dim>
					<dim>256</dim>
					<dim>1</dim>
				</port>
			</output>
		</layer>
		<layer id="203" name="Conv_85/WithoutBiases" type="Convolution" version="opset1">
			<data strides="1" dilations="1" pads_begin="0" pads_end="0" auto_pad="explicit"/>
			<input>
				<port id="0" precision="FP32">
					<dim>1</dim>
					<dim>256</dim>
					<dim>128</dim>
				</port>
				<port id="1" precision="FP32">
					<dim>256</dim>
					<dim>256</dim>
					<dim>1</dim>
				</port>
			</input>
			<output>
				<port id="2" precision="FP32">
					<dim>1</dim>
					<dim>256</dim>
					<dim>128</dim>
				</port>
			</output>
		</layer>
		<layer id="204" name="Conv_85/Dims5353" type="Const" version="opset1">
			<data element_type="f32" shape="1, 256, 1" offset="8875264" size="1024"/>
			<output>
				<port id="0" precision="FP32">
					<dim>1</dim>
					<dim>256</dim>
					<dim>1</dim>
				</port>
			</output>
		</layer>
		<layer id="205" name="Conv_85" type="Add" version="opset1">
			<data auto_broadcast="numpy"/>
			<input>
				<port id="0" precision="FP32">
					<dim>1</dim>
					<dim>256</dim>
					<dim>128</dim>
				</port>
				<port id="1" precision="FP32">
					<dim>1</dim>
					<dim>256</dim>
					<dim>1</dim>
				</port>
			</input>
			<output>
				<port id="2" precision="FP32" names="1089">
					<dim>1</dim>
					<dim>256</dim>
					<dim>128</dim>
				</port>
			</output>
		</layer>
		<layer id="206" name="Add_86" type="Add" version="opset1">
			<data auto_broadcast="numpy"/>
			<input>
				<port id="0" precision="FP32">
					<dim>1</dim>
					<dim>256</dim>
					<dim>128</dim>
				</port>
				<port id="1" precision="FP32">
					<dim>1</dim>
					<dim>256</dim>
					<dim>128</dim>
				</port>
			</input>
			<output>
				<port id="2" precision="FP32" names="757">
					<dim>1</dim>
					<dim>256</dim>
					<dim>128</dim>
				</port>
			</output>
		</layer>
		<layer id="207" name="Relu_87" type="ReLU" version="opset1">
			<input>
				<port id="0" precision="FP32">
					<dim>1</dim>
					<dim>256</dim>
					<dim>128</dim>
				</port>
			</input>
			<output>
				<port id="1" precision="FP32" names="758">
					<dim>1</dim>
					<dim>256</dim>
					<dim>128</dim>
				</port>
			</output>
		</layer>
		<layer id="208" name="encoder.encoder.6.mconv.0.conv.weight" type="Const" version="opset1">
			<data element_type="f32" shape="256, 1, 1, 39" offset="8876288" size="39936"/>
			<output>
				<port id="0" precision="FP32" names="encoder.encoder.6.mconv.0.conv.weight">
					<dim>256</dim>
					<dim>1</dim>
					<dim>1</dim>
					<dim>39</dim>
				</port>
			</output>
		</layer>
		<layer id="209" name="Conv_88" type="GroupConvolution" version="opset1">
			<data strides="1" pads_begin="19" pads_end="19" dilations="1" auto_pad="explicit"/>
			<input>
				<port id="0" precision="FP32">
					<dim>1</dim>
					<dim>256</dim>
					<dim>128</dim>
				</port>
				<port id="1" precision="FP32">
					<dim>256</dim>
					<dim>1</dim>
					<dim>1</dim>
					<dim>39</dim>
				</port>
			</input>
			<output>
				<port id="2" precision="FP32" names="759">
					<dim>1</dim>
					<dim>256</dim>
					<dim>128</dim>
				</port>
			</output>
		</layer>
		<layer id="210" name="1093" type="Const" version="opset1">
			<data element_type="f32" shape="256, 256, 1" offset="8916224" size="262144"/>
			<output>
				<port id="0" precision="FP32" names="1093">
					<dim>256</dim>
					<dim>256</dim>
					<dim>1</dim>
				</port>
			</output>
		</layer>
		<layer id="211" name="Conv_89/WithoutBiases" type="Convolution" version="opset1">
			<data strides="1" dilations="1" pads_begin="0" pads_end="0" auto_pad="explicit"/>
			<input>
				<port id="0" precision="FP32">
					<dim>1</dim>
					<dim>256</dim>
					<dim>128</dim>
				</port>
				<port id="1" precision="FP32">
					<dim>256</dim>
					<dim>256</dim>
					<dim>1</dim>
				</port>
			</input>
			<output>
				<port id="2" precision="FP32">
					<dim>1</dim>
					<dim>256</dim>
					<dim>128</dim>
				</port>
			</output>
		</layer>
		<layer id="212" name="Conv_89/Dims4999" type="Const" version="opset1">
			<data element_type="f32" shape="1, 256, 1" offset="9178368" size="1024"/>
			<output>
				<port id="0" precision="FP32">
					<dim>1</dim>
					<dim>256</dim>
					<dim>1</dim>
				</port>
			</output>
		</layer>
		<layer id="213" name="Conv_89" type="Add" version="opset1">
			<data auto_broadcast="numpy"/>
			<input>
				<port id="0" precision="FP32">
					<dim>1</dim>
					<dim>256</dim>
					<dim>128</dim>
				</port>
				<port id="1" precision="FP32">
					<dim>1</dim>
					<dim>256</dim>
					<dim>1</dim>
				</port>
			</input>
			<output>
				<port id="2" precision="FP32" names="1092">
					<dim>1</dim>
					<dim>256</dim>
					<dim>128</dim>
				</port>
			</output>
		</layer>
		<layer id="214" name="Relu_90" type="ReLU" version="opset1">
			<input>
				<port id="0" precision="FP32">
					<dim>1</dim>
					<dim>256</dim>
					<dim>128</dim>
				</port>
			</input>
			<output>
				<port id="1" precision="FP32" names="762">
					<dim>1</dim>
					<dim>256</dim>
					<dim>128</dim>
				</port>
			</output>
		</layer>
		<layer id="215" name="encoder.encoder.6.mconv.5.conv.weight" type="Const" version="opset1">
			<data element_type="f32" shape="256, 1, 1, 39" offset="9179392" size="39936"/>
			<output>
				<port id="0" precision="FP32" names="encoder.encoder.6.mconv.5.conv.weight">
					<dim>256</dim>
					<dim>1</dim>
					<dim>1</dim>
					<dim>39</dim>
				</port>
			</output>
		</layer>
		<layer id="216" name="Conv_91" type="GroupConvolution" version="opset1">
			<data strides="1" pads_begin="19" pads_end="19" dilations="1" auto_pad="explicit"/>
			<input>
				<port id="0" precision="FP32">
					<dim>1</dim>
					<dim>256</dim>
					<dim>128</dim>
				</port>
				<port id="1" precision="FP32">
					<dim>256</dim>
					<dim>1</dim>
					<dim>1</dim>
					<dim>39</dim>
				</port>
			</input>
			<output>
				<port id="2" precision="FP32" names="763">
					<dim>1</dim>
					<dim>256</dim>
					<dim>128</dim>
				</port>
			</output>
		</layer>
		<layer id="217" name="1096" type="Const" version="opset1">
			<data element_type="f32" shape="256, 256, 1" offset="9219328" size="262144"/>
			<output>
				<port id="0" precision="FP32" names="1096">
					<dim>256</dim>
					<dim>256</dim>
					<dim>1</dim>
				</port>
			</output>
		</layer>
		<layer id="218" name="Conv_92/WithoutBiases" type="Convolution" version="opset1">
			<data strides="1" dilations="1" pads_begin="0" pads_end="0" auto_pad="explicit"/>
			<input>
				<port id="0" precision="FP32">
					<dim>1</dim>
					<dim>256</dim>
					<dim>128</dim>
				</port>
				<port id="1" precision="FP32">
					<dim>256</dim>
					<dim>256</dim>
					<dim>1</dim>
				</port>
			</input>
			<output>
				<port id="2" precision="FP32">
					<dim>1</dim>
					<dim>256</dim>
					<dim>128</dim>
				</port>
			</output>
		</layer>
		<layer id="219" name="Conv_92/Dims5113" type="Const" version="opset1">
			<data element_type="f32" shape="1, 256, 1" offset="9481472" size="1024"/>
			<output>
				<port id="0" precision="FP32">
					<dim>1</dim>
					<dim>256</dim>
					<dim>1</dim>
				</port>
			</output>
		</layer>
		<layer id="220" name="Conv_92" type="Add" version="opset1">
			<data auto_broadcast="numpy"/>
			<input>
				<port id="0" precision="FP32">
					<dim>1</dim>
					<dim>256</dim>
					<dim>128</dim>
				</port>
				<port id="1" precision="FP32">
					<dim>1</dim>
					<dim>256</dim>
					<dim>1</dim>
				</port>
			</input>
			<output>
				<port id="2" precision="FP32" names="1095">
					<dim>1</dim>
					<dim>256</dim>
					<dim>128</dim>
				</port>
			</output>
		</layer>
		<layer id="221" name="Relu_93" type="ReLU" version="opset1">
			<input>
				<port id="0" precision="FP32">
					<dim>1</dim>
					<dim>256</dim>
					<dim>128</dim>
				</port>
			</input>
			<output>
				<port id="1" precision="FP32" names="766">
					<dim>1</dim>
					<dim>256</dim>
					<dim>128</dim>
				</port>
			</output>
		</layer>
		<layer id="222" name="encoder.encoder.6.mconv.10.conv.weight" type="Const" version="opset1">
			<data element_type="f32" shape="256, 1, 1, 39" offset="9482496" size="39936"/>
			<output>
				<port id="0" precision="FP32" names="encoder.encoder.6.mconv.10.conv.weight">
					<dim>256</dim>
					<dim>1</dim>
					<dim>1</dim>
					<dim>39</dim>
				</port>
			</output>
		</layer>
		<layer id="223" name="Conv_94" type="GroupConvolution" version="opset1">
			<data strides="1" pads_begin="19" pads_end="19" dilations="1" auto_pad="explicit"/>
			<input>
				<port id="0" precision="FP32">
					<dim>1</dim>
					<dim>256</dim>
					<dim>128</dim>
				</port>
				<port id="1" precision="FP32">
					<dim>256</dim>
					<dim>1</dim>
					<dim>1</dim>
					<dim>39</dim>
				</port>
			</input>
			<output>
				<port id="2" precision="FP32" names="767">
					<dim>1</dim>
					<dim>256</dim>
					<dim>128</dim>
				</port>
			</output>
		</layer>
		<layer id="224" name="1099" type="Const" version="opset1">
			<data element_type="f32" shape="256, 256, 1" offset="9522432" size="262144"/>
			<output>
				<port id="0" precision="FP32" names="1099">
					<dim>256</dim>
					<dim>256</dim>
					<dim>1</dim>
				</port>
			</output>
		</layer>
		<layer id="225" name="Conv_95/WithoutBiases" type="Convolution" version="opset1">
			<data strides="1" dilations="1" pads_begin="0" pads_end="0" auto_pad="explicit"/>
			<input>
				<port id="0" precision="FP32">
					<dim>1</dim>
					<dim>256</dim>
					<dim>128</dim>
				</port>
				<port id="1" precision="FP32">
					<dim>256</dim>
					<dim>256</dim>
					<dim>1</dim>
				</port>
			</input>
			<output>
				<port id="2" precision="FP32">
					<dim>1</dim>
					<dim>256</dim>
					<dim>128</dim>
				</port>
			</output>
		</layer>
		<layer id="226" name="Conv_95/Dims5413" type="Const" version="opset1">
			<data element_type="f32" shape="1, 256, 1" offset="9784576" size="1024"/>
			<output>
				<port id="0" precision="FP32">
					<dim>1</dim>
					<dim>256</dim>
					<dim>1</dim>
				</port>
			</output>
		</layer>
		<layer id="227" name="Conv_95" type="Add" version="opset1">
			<data auto_broadcast="numpy"/>
			<input>
				<port id="0" precision="FP32">
					<dim>1</dim>
					<dim>256</dim>
					<dim>128</dim>
				</port>
				<port id="1" precision="FP32">
					<dim>1</dim>
					<dim>256</dim>
					<dim>1</dim>
				</port>
			</input>
			<output>
				<port id="2" precision="FP32" names="1098">
					<dim>1</dim>
					<dim>256</dim>
					<dim>128</dim>
				</port>
			</output>
		</layer>
		<layer id="228" name="Relu_96" type="ReLU" version="opset1">
			<input>
				<port id="0" precision="FP32">
					<dim>1</dim>
					<dim>256</dim>
					<dim>128</dim>
				</port>
			</input>
			<output>
				<port id="1" precision="FP32" names="770">
					<dim>1</dim>
					<dim>256</dim>
					<dim>128</dim>
				</port>
			</output>
		</layer>
		<layer id="229" name="encoder.encoder.6.mconv.15.conv.weight" type="Const" version="opset1">
			<data element_type="f32" shape="256, 1, 1, 39" offset="9785600" size="39936"/>
			<output>
				<port id="0" precision="FP32" names="encoder.encoder.6.mconv.15.conv.weight">
					<dim>256</dim>
					<dim>1</dim>
					<dim>1</dim>
					<dim>39</dim>
				</port>
			</output>
		</layer>
		<layer id="230" name="Conv_97" type="GroupConvolution" version="opset1">
			<data strides="1" pads_begin="19" pads_end="19" dilations="1" auto_pad="explicit"/>
			<input>
				<port id="0" precision="FP32">
					<dim>1</dim>
					<dim>256</dim>
					<dim>128</dim>
				</port>
				<port id="1" precision="FP32">
					<dim>256</dim>
					<dim>1</dim>
					<dim>1</dim>
					<dim>39</dim>
				</port>
			</input>
			<output>
				<port id="2" precision="FP32" names="771">
					<dim>1</dim>
					<dim>256</dim>
					<dim>128</dim>
				</port>
			</output>
		</layer>
		<layer id="231" name="1102" type="Const" version="opset1">
			<data element_type="f32" shape="256, 256, 1" offset="9825536" size="262144"/>
			<output>
				<port id="0" precision="FP32" names="1102">
					<dim>256</dim>
					<dim>256</dim>
					<dim>1</dim>
				</port>
			</output>
		</layer>
		<layer id="232" name="Conv_98/WithoutBiases" type="Convolution" version="opset1">
			<data strides="1" dilations="1" pads_begin="0" pads_end="0" auto_pad="explicit"/>
			<input>
				<port id="0" precision="FP32">
					<dim>1</dim>
					<dim>256</dim>
					<dim>128</dim>
				</port>
				<port id="1" precision="FP32">
					<dim>256</dim>
					<dim>256</dim>
					<dim>1</dim>
				</port>
			</input>
			<output>
				<port id="2" precision="FP32">
					<dim>1</dim>
					<dim>256</dim>
					<dim>128</dim>
				</port>
			</output>
		</layer>
		<layer id="233" name="Conv_98/Dims5137" type="Const" version="opset1">
			<data element_type="f32" shape="1, 256, 1" offset="10087680" size="1024"/>
			<output>
				<port id="0" precision="FP32">
					<dim>1</dim>
					<dim>256</dim>
					<dim>1</dim>
				</port>
			</output>
		</layer>
		<layer id="234" name="Conv_98" type="Add" version="opset1">
			<data auto_broadcast="numpy"/>
			<input>
				<port id="0" precision="FP32">
					<dim>1</dim>
					<dim>256</dim>
					<dim>128</dim>
				</port>
				<port id="1" precision="FP32">
					<dim>1</dim>
					<dim>256</dim>
					<dim>1</dim>
				</port>
			</input>
			<output>
				<port id="2" precision="FP32" names="1101">
					<dim>1</dim>
					<dim>256</dim>
					<dim>128</dim>
				</port>
			</output>
		</layer>
		<layer id="235" name="Relu_99" type="ReLU" version="opset1">
			<input>
				<port id="0" precision="FP32">
					<dim>1</dim>
					<dim>256</dim>
					<dim>128</dim>
				</port>
			</input>
			<output>
				<port id="1" precision="FP32" names="774">
					<dim>1</dim>
					<dim>256</dim>
					<dim>128</dim>
				</port>
			</output>
		</layer>
		<layer id="236" name="encoder.encoder.6.mconv.20.conv.weight" type="Const" version="opset1">
			<data element_type="f32" shape="256, 1, 1, 39" offset="10088704" size="39936"/>
			<output>
				<port id="0" precision="FP32" names="encoder.encoder.6.mconv.20.conv.weight">
					<dim>256</dim>
					<dim>1</dim>
					<dim>1</dim>
					<dim>39</dim>
				</port>
			</output>
		</layer>
		<layer id="237" name="Conv_100" type="GroupConvolution" version="opset1">
			<data strides="1" pads_begin="19" pads_end="19" dilations="1" auto_pad="explicit"/>
			<input>
				<port id="0" precision="FP32">
					<dim>1</dim>
					<dim>256</dim>
					<dim>128</dim>
				</port>
				<port id="1" precision="FP32">
					<dim>256</dim>
					<dim>1</dim>
					<dim>1</dim>
					<dim>39</dim>
				</port>
			</input>
			<output>
				<port id="2" precision="FP32" names="775">
					<dim>1</dim>
					<dim>256</dim>
					<dim>128</dim>
				</port>
			</output>
		</layer>
		<layer id="238" name="1105" type="Const" version="opset1">
			<data element_type="f32" shape="256, 256, 1" offset="10128640" size="262144"/>
			<output>
				<port id="0" precision="FP32" names="1105">
					<dim>256</dim>
					<dim>256</dim>
					<dim>1</dim>
				</port>
			</output>
		</layer>
		<layer id="239" name="Conv_101/WithoutBiases" type="Convolution" version="opset1">
			<data strides="1" dilations="1" pads_begin="0" pads_end="0" auto_pad="explicit"/>
			<input>
				<port id="0" precision="FP32">
					<dim>1</dim>
					<dim>256</dim>
					<dim>128</dim>
				</port>
				<port id="1" precision="FP32">
					<dim>256</dim>
					<dim>256</dim>
					<dim>1</dim>
				</port>
			</input>
			<output>
				<port id="2" precision="FP32">
					<dim>1</dim>
					<dim>256</dim>
					<dim>128</dim>
				</port>
			</output>
		</layer>
		<layer id="240" name="Conv_101/Dims4975" type="Const" version="opset1">
			<data element_type="f32" shape="1, 256, 1" offset="10390784" size="1024"/>
			<output>
				<port id="0" precision="FP32">
					<dim>1</dim>
					<dim>256</dim>
					<dim>1</dim>
				</port>
			</output>
		</layer>
		<layer id="241" name="Conv_101" type="Add" version="opset1">
			<data auto_broadcast="numpy"/>
			<input>
				<port id="0" precision="FP32">
					<dim>1</dim>
					<dim>256</dim>
					<dim>128</dim>
				</port>
				<port id="1" precision="FP32">
					<dim>1</dim>
					<dim>256</dim>
					<dim>1</dim>
				</port>
			</input>
			<output>
				<port id="2" precision="FP32" names="1104">
					<dim>1</dim>
					<dim>256</dim>
					<dim>128</dim>
				</port>
			</output>
		</layer>
		<layer id="242" name="1108" type="Const" version="opset1">
			<data element_type="f32" shape="256, 256, 1" offset="10391808" size="262144"/>
			<output>
				<port id="0" precision="FP32" names="1108">
					<dim>256</dim>
					<dim>256</dim>
					<dim>1</dim>
				</port>
			</output>
		</layer>
		<layer id="243" name="Conv_102/WithoutBiases" type="Convolution" version="opset1">
			<data strides="1" dilations="1" pads_begin="0" pads_end="0" auto_pad="explicit"/>
			<input>
				<port id="0" precision="FP32">
					<dim>1</dim>
					<dim>256</dim>
					<dim>128</dim>
				</port>
				<port id="1" precision="FP32">
					<dim>256</dim>
					<dim>256</dim>
					<dim>1</dim>
				</port>
			</input>
			<output>
				<port id="2" precision="FP32">
					<dim>1</dim>
					<dim>256</dim>
					<dim>128</dim>
				</port>
			</output>
		</layer>
		<layer id="244" name="Conv_102/Dims5161" type="Const" version="opset1">
			<data element_type="f32" shape="1, 256, 1" offset="10653952" size="1024"/>
			<output>
				<port id="0" precision="FP32">
					<dim>1</dim>
					<dim>256</dim>
					<dim>1</dim>
				</port>
			</output>
		</layer>
		<layer id="245" name="Conv_102" type="Add" version="opset1">
			<data auto_broadcast="numpy"/>
			<input>
				<port id="0" precision="FP32">
					<dim>1</dim>
					<dim>256</dim>
					<dim>128</dim>
				</port>
				<port id="1" precision="FP32">
					<dim>1</dim>
					<dim>256</dim>
					<dim>1</dim>
				</port>
			</input>
			<output>
				<port id="2" precision="FP32" names="1107">
					<dim>1</dim>
					<dim>256</dim>
					<dim>128</dim>
				</port>
			</output>
		</layer>
		<layer id="246" name="Add_103" type="Add" version="opset1">
			<data auto_broadcast="numpy"/>
			<input>
				<port id="0" precision="FP32">
					<dim>1</dim>
					<dim>256</dim>
					<dim>128</dim>
				</port>
				<port id="1" precision="FP32">
					<dim>1</dim>
					<dim>256</dim>
					<dim>128</dim>
				</port>
			</input>
			<output>
				<port id="2" precision="FP32" names="780">
					<dim>1</dim>
					<dim>256</dim>
					<dim>128</dim>
				</port>
			</output>
		</layer>
		<layer id="247" name="Relu_104" type="ReLU" version="opset1">
			<input>
				<port id="0" precision="FP32">
					<dim>1</dim>
					<dim>256</dim>
					<dim>128</dim>
				</port>
			</input>
			<output>
				<port id="1" precision="FP32" names="781">
					<dim>1</dim>
					<dim>256</dim>
					<dim>128</dim>
				</port>
			</output>
		</layer>
		<layer id="248" name="encoder.encoder.7.mconv.0.conv.weight" type="Const" version="opset1">
			<data element_type="f32" shape="256, 1, 1, 51" offset="10654976" size="52224"/>
			<output>
				<port id="0" precision="FP32" names="encoder.encoder.7.mconv.0.conv.weight">
					<dim>256</dim>
					<dim>1</dim>
					<dim>1</dim>
					<dim>51</dim>
				</port>
			</output>
		</layer>
		<layer id="249" name="Conv_105" type="GroupConvolution" version="opset1">
			<data strides="1" pads_begin="25" pads_end="25" dilations="1" auto_pad="explicit"/>
			<input>
				<port id="0" precision="FP32">
					<dim>1</dim>
					<dim>256</dim>
					<dim>128</dim>
				</port>
				<port id="1" precision="FP32">
					<dim>256</dim>
					<dim>1</dim>
					<dim>1</dim>
					<dim>51</dim>
				</port>
			</input>
			<output>
				<port id="2" precision="FP32" names="782">
					<dim>1</dim>
					<dim>256</dim>
					<dim>128</dim>
				</port>
			</output>
		</layer>
		<layer id="250" name="1111" type="Const" version="opset1">
			<data element_type="f32" shape="512, 256, 1" offset="10707200" size="524288"/>
			<output>
				<port id="0" precision="FP32" names="1111">
					<dim>512</dim>
					<dim>256</dim>
					<dim>1</dim>
				</port>
			</output>
		</layer>
		<layer id="251" name="Conv_106/WithoutBiases" type="Convolution" version="opset1">
			<data strides="1" dilations="1" pads_begin="0" pads_end="0" auto_pad="explicit"/>
			<input>
				<port id="0" precision="FP32">
					<dim>1</dim>
					<dim>256</dim>
					<dim>128</dim>
				</port>
				<port id="1" precision="FP32">
					<dim>512</dim>
					<dim>256</dim>
					<dim>1</dim>
				</port>
			</input>
			<output>
				<port id="2" precision="FP32">
					<dim>1</dim>
					<dim>512</dim>
					<dim>128</dim>
				</port>
			</output>
		</layer>
		<layer id="252" name="Conv_106/Dims5401" type="Const" version="opset1">
			<data element_type="f32" shape="1, 512, 1" offset="11231488" size="2048"/>
			<output>
				<port id="0" precision="FP32">
					<dim>1</dim>
					<dim>512</dim>
					<dim>1</dim>
				</port>
			</output>
		</layer>
		<layer id="253" name="Conv_106" type="Add" version="opset1">
			<data auto_broadcast="numpy"/>
			<input>
				<port id="0" precision="FP32">
					<dim>1</dim>
					<dim>512</dim>
					<dim>128</dim>
				</port>
				<port id="1" precision="FP32">
					<dim>1</dim>
					<dim>512</dim>
					<dim>1</dim>
				</port>
			</input>
			<output>
				<port id="2" precision="FP32" names="1110">
					<dim>1</dim>
					<dim>512</dim>
					<dim>128</dim>
				</port>
			</output>
		</layer>
		<layer id="254" name="Relu_107" type="ReLU" version="opset1">
			<input>
				<port id="0" precision="FP32">
					<dim>1</dim>
					<dim>512</dim>
					<dim>128</dim>
				</port>
			</input>
			<output>
				<port id="1" precision="FP32" names="785">
					<dim>1</dim>
					<dim>512</dim>
					<dim>128</dim>
				</port>
			</output>
		</layer>
		<layer id="255" name="encoder.encoder.7.mconv.5.conv.weight" type="Const" version="opset1">
			<data element_type="f32" shape="512, 1, 1, 51" offset="11233536" size="104448"/>
			<output>
				<port id="0" precision="FP32" names="encoder.encoder.7.mconv.5.conv.weight">
					<dim>512</dim>
					<dim>1</dim>
					<dim>1</dim>
					<dim>51</dim>
				</port>
			</output>
		</layer>
		<layer id="256" name="Conv_108" type="GroupConvolution" version="opset1">
			<data strides="1" pads_begin="25" pads_end="25" dilations="1" auto_pad="explicit"/>
			<input>
				<port id="0" precision="FP32">
					<dim>1</dim>
					<dim>512</dim>
					<dim>128</dim>
				</port>
				<port id="1" precision="FP32">
					<dim>512</dim>
					<dim>1</dim>
					<dim>1</dim>
					<dim>51</dim>
				</port>
			</input>
			<output>
				<port id="2" precision="FP32" names="786">
					<dim>1</dim>
					<dim>512</dim>
					<dim>128</dim>
				</port>
			</output>
		</layer>
		<layer id="257" name="1114" type="Const" version="opset1">
			<data element_type="f32" shape="512, 512, 1" offset="11337984" size="1048576"/>
			<output>
				<port id="0" precision="FP32" names="1114">
					<dim>512</dim>
					<dim>512</dim>
					<dim>1</dim>
				</port>
			</output>
		</layer>
		<layer id="258" name="Conv_109/WithoutBiases" type="Convolution" version="opset1">
			<data strides="1" dilations="1" pads_begin="0" pads_end="0" auto_pad="explicit"/>
			<input>
				<port id="0" precision="FP32">
					<dim>1</dim>
					<dim>512</dim>
					<dim>128</dim>
				</port>
				<port id="1" precision="FP32">
					<dim>512</dim>
					<dim>512</dim>
					<dim>1</dim>
				</port>
			</input>
			<output>
				<port id="2" precision="FP32">
					<dim>1</dim>
					<dim>512</dim>
					<dim>128</dim>
				</port>
			</output>
		</layer>
		<layer id="259" name="Conv_109/Dims5143" type="Const" version="opset1">
			<data element_type="f32" shape="1, 512, 1" offset="12386560" size="2048"/>
			<output>
				<port id="0" precision="FP32">
					<dim>1</dim>
					<dim>512</dim>
					<dim>1</dim>
				</port>
			</output>
		</layer>
		<layer id="260" name="Conv_109" type="Add" version="opset1">
			<data auto_broadcast="numpy"/>
			<input>
				<port id="0" precision="FP32">
					<dim>1</dim>
					<dim>512</dim>
					<dim>128</dim>
				</port>
				<port id="1" precision="FP32">
					<dim>1</dim>
					<dim>512</dim>
					<dim>1</dim>
				</port>
			</input>
			<output>
				<port id="2" precision="FP32" names="1113">
					<dim>1</dim>
					<dim>512</dim>
					<dim>128</dim>
				</port>
			</output>
		</layer>
		<layer id="261" name="Relu_110" type="ReLU" version="opset1">
			<input>
				<port id="0" precision="FP32">
					<dim>1</dim>
					<dim>512</dim>
					<dim>128</dim>
				</port>
			</input>
			<output>
				<port id="1" precision="FP32" names="789">
					<dim>1</dim>
					<dim>512</dim>
					<dim>128</dim>
				</port>
			</output>
		</layer>
		<layer id="262" name="encoder.encoder.7.mconv.10.conv.weight" type="Const" version="opset1">
			<data element_type="f32" shape="512, 1, 1, 51" offset="12388608" size="104448"/>
			<output>
				<port id="0" precision="FP32" names="encoder.encoder.7.mconv.10.conv.weight">
					<dim>512</dim>
					<dim>1</dim>
					<dim>1</dim>
					<dim>51</dim>
				</port>
			</output>
		</layer>
		<layer id="263" name="Conv_111" type="GroupConvolution" version="opset1">
			<data strides="1" pads_begin="25" pads_end="25" dilations="1" auto_pad="explicit"/>
			<input>
				<port id="0" precision="FP32">
					<dim>1</dim>
					<dim>512</dim>
					<dim>128</dim>
				</port>
				<port id="1" precision="FP32">
					<dim>512</dim>
					<dim>1</dim>
					<dim>1</dim>
					<dim>51</dim>
				</port>
			</input>
			<output>
				<port id="2" precision="FP32" names="790">
					<dim>1</dim>
					<dim>512</dim>
					<dim>128</dim>
				</port>
			</output>
		</layer>
		<layer id="264" name="1117" type="Const" version="opset1">
			<data element_type="f32" shape="512, 512, 1" offset="12493056" size="1048576"/>
			<output>
				<port id="0" precision="FP32" names="1117">
					<dim>512</dim>
					<dim>512</dim>
					<dim>1</dim>
				</port>
			</output>
		</layer>
		<layer id="265" name="Conv_112/WithoutBiases" type="Convolution" version="opset1">
			<data strides="1" dilations="1" pads_begin="0" pads_end="0" auto_pad="explicit"/>
			<input>
				<port id="0" precision="FP32">
					<dim>1</dim>
					<dim>512</dim>
					<dim>128</dim>
				</port>
				<port id="1" precision="FP32">
					<dim>512</dim>
					<dim>512</dim>
					<dim>1</dim>
				</port>
			</input>
			<output>
				<port id="2" precision="FP32">
					<dim>1</dim>
					<dim>512</dim>
					<dim>128</dim>
				</port>
			</output>
		</layer>
		<layer id="266" name="Conv_112/Dims5371" type="Const" version="opset1">
			<data element_type="f32" shape="1, 512, 1" offset="13541632" size="2048"/>
			<output>
				<port id="0" precision="FP32">
					<dim>1</dim>
					<dim>512</dim>
					<dim>1</dim>
				</port>
			</output>
		</layer>
		<layer id="267" name="Conv_112" type="Add" version="opset1">
			<data auto_broadcast="numpy"/>
			<input>
				<port id="0" precision="FP32">
					<dim>1</dim>
					<dim>512</dim>
					<dim>128</dim>
				</port>
				<port id="1" precision="FP32">
					<dim>1</dim>
					<dim>512</dim>
					<dim>1</dim>
				</port>
			</input>
			<output>
				<port id="2" precision="FP32" names="1116">
					<dim>1</dim>
					<dim>512</dim>
					<dim>128</dim>
				</port>
			</output>
		</layer>
		<layer id="268" name="Relu_113" type="ReLU" version="opset1">
			<input>
				<port id="0" precision="FP32">
					<dim>1</dim>
					<dim>512</dim>
					<dim>128</dim>
				</port>
			</input>
			<output>
				<port id="1" precision="FP32" names="793">
					<dim>1</dim>
					<dim>512</dim>
					<dim>128</dim>
				</port>
			</output>
		</layer>
		<layer id="269" name="encoder.encoder.7.mconv.15.conv.weight" type="Const" version="opset1">
			<data element_type="f32" shape="512, 1, 1, 51" offset="13543680" size="104448"/>
			<output>
				<port id="0" precision="FP32" names="encoder.encoder.7.mconv.15.conv.weight">
					<dim>512</dim>
					<dim>1</dim>
					<dim>1</dim>
					<dim>51</dim>
				</port>
			</output>
		</layer>
		<layer id="270" name="Conv_114" type="GroupConvolution" version="opset1">
			<data strides="1" pads_begin="25" pads_end="25" dilations="1" auto_pad="explicit"/>
			<input>
				<port id="0" precision="FP32">
					<dim>1</dim>
					<dim>512</dim>
					<dim>128</dim>
				</port>
				<port id="1" precision="FP32">
					<dim>512</dim>
					<dim>1</dim>
					<dim>1</dim>
					<dim>51</dim>
				</port>
			</input>
			<output>
				<port id="2" precision="FP32" names="794">
					<dim>1</dim>
					<dim>512</dim>
					<dim>128</dim>
				</port>
			</output>
		</layer>
		<layer id="271" name="1120" type="Const" version="opset1">
			<data element_type="f32" shape="512, 512, 1" offset="13648128" size="1048576"/>
			<output>
				<port id="0" precision="FP32" names="1120">
					<dim>512</dim>
					<dim>512</dim>
					<dim>1</dim>
				</port>
			</output>
		</layer>
		<layer id="272" name="Conv_115/WithoutBiases" type="Convolution" version="opset1">
			<data strides="1" dilations="1" pads_begin="0" pads_end="0" auto_pad="explicit"/>
			<input>
				<port id="0" precision="FP32">
					<dim>1</dim>
					<dim>512</dim>
					<dim>128</dim>
				</port>
				<port id="1" precision="FP32">
					<dim>512</dim>
					<dim>512</dim>
					<dim>1</dim>
				</port>
			</input>
			<output>
				<port id="2" precision="FP32">
					<dim>1</dim>
					<dim>512</dim>
					<dim>128</dim>
				</port>
			</output>
		</layer>
		<layer id="273" name="Conv_115/Dims5017" type="Const" version="opset1">
			<data element_type="f32" shape="1, 512, 1" offset="14696704" size="2048"/>
			<output>
				<port id="0" precision="FP32">
					<dim>1</dim>
					<dim>512</dim>
					<dim>1</dim>
				</port>
			</output>
		</layer>
		<layer id="274" name="Conv_115" type="Add" version="opset1">
			<data auto_broadcast="numpy"/>
			<input>
				<port id="0" precision="FP32">
					<dim>1</dim>
					<dim>512</dim>
					<dim>128</dim>
				</port>
				<port id="1" precision="FP32">
					<dim>1</dim>
					<dim>512</dim>
					<dim>1</dim>
				</port>
			</input>
			<output>
				<port id="2" precision="FP32" names="1119">
					<dim>1</dim>
					<dim>512</dim>
					<dim>128</dim>
				</port>
			</output>
		</layer>
		<layer id="275" name="Relu_116" type="ReLU" version="opset1">
			<input>
				<port id="0" precision="FP32">
					<dim>1</dim>
					<dim>512</dim>
					<dim>128</dim>
				</port>
			</input>
			<output>
				<port id="1" precision="FP32" names="797">
					<dim>1</dim>
					<dim>512</dim>
					<dim>128</dim>
				</port>
			</output>
		</layer>
		<layer id="276" name="encoder.encoder.7.mconv.20.conv.weight" type="Const" version="opset1">
			<data element_type="f32" shape="512, 1, 1, 51" offset="14698752" size="104448"/>
			<output>
				<port id="0" precision="FP32" names="encoder.encoder.7.mconv.20.conv.weight">
					<dim>512</dim>
					<dim>1</dim>
					<dim>1</dim>
					<dim>51</dim>
				</port>
			</output>
		</layer>
		<layer id="277" name="Conv_117" type="GroupConvolution" version="opset1">
			<data strides="1" pads_begin="25" pads_end="25" dilations="1" auto_pad="explicit"/>
			<input>
				<port id="0" precision="FP32">
					<dim>1</dim>
					<dim>512</dim>
					<dim>128</dim>
				</port>
				<port id="1" precision="FP32">
					<dim>512</dim>
					<dim>1</dim>
					<dim>1</dim>
					<dim>51</dim>
				</port>
			</input>
			<output>
				<port id="2" precision="FP32" names="798">
					<dim>1</dim>
					<dim>512</dim>
					<dim>128</dim>
				</port>
			</output>
		</layer>
		<layer id="278" name="1123" type="Const" version="opset1">
			<data element_type="f32" shape="512, 512, 1" offset="14803200" size="1048576"/>
			<output>
				<port id="0" precision="FP32" names="1123">
					<dim>512</dim>
					<dim>512</dim>
					<dim>1</dim>
				</port>
			</output>
		</layer>
		<layer id="279" name="Conv_118/WithoutBiases" type="Convolution" version="opset1">
			<data strides="1" dilations="1" pads_begin="0" pads_end="0" auto_pad="explicit"/>
			<input>
				<port id="0" precision="FP32">
					<dim>1</dim>
					<dim>512</dim>
					<dim>128</dim>
				</port>
				<port id="1" precision="FP32">
					<dim>512</dim>
					<dim>512</dim>
					<dim>1</dim>
				</port>
			</input>
			<output>
				<port id="2" precision="FP32">
					<dim>1</dim>
					<dim>512</dim>
					<dim>128</dim>
				</port>
			</output>
		</layer>
		<layer id="280" name="Conv_118/Dims5065" type="Const" version="opset1">
			<data element_type="f32" shape="1, 512, 1" offset="15851776" size="2048"/>
			<output>
				<port id="0" precision="FP32">
					<dim>1</dim>
					<dim>512</dim>
					<dim>1</dim>
				</port>
			</output>
		</layer>
		<layer id="281" name="Conv_118" type="Add" version="opset1">
			<data auto_broadcast="numpy"/>
			<input>
				<port id="0" precision="FP32">
					<dim>1</dim>
					<dim>512</dim>
					<dim>128</dim>
				</port>
				<port id="1" precision="FP32">
					<dim>1</dim>
					<dim>512</dim>
					<dim>1</dim>
				</port>
			</input>
			<output>
				<port id="2" precision="FP32" names="1122">
					<dim>1</dim>
					<dim>512</dim>
					<dim>128</dim>
				</port>
			</output>
		</layer>
		<layer id="282" name="1126" type="Const" version="opset1">
			<data element_type="f32" shape="512, 256, 1" offset="15853824" size="524288"/>
			<output>
				<port id="0" precision="FP32" names="1126">
					<dim>512</dim>
					<dim>256</dim>
					<dim>1</dim>
				</port>
			</output>
		</layer>
		<layer id="283" name="Conv_119/WithoutBiases" type="Convolution" version="opset1">
			<data strides="1" dilations="1" pads_begin="0" pads_end="0" auto_pad="explicit"/>
			<input>
				<port id="0" precision="FP32">
					<dim>1</dim>
					<dim>256</dim>
					<dim>128</dim>
				</port>
				<port id="1" precision="FP32">
					<dim>512</dim>
					<dim>256</dim>
					<dim>1</dim>
				</port>
			</input>
			<output>
				<port id="2" precision="FP32">
					<dim>1</dim>
					<dim>512</dim>
					<dim>128</dim>
				</port>
			</output>
		</layer>
		<layer id="284" name="Conv_119/Dims4933" type="Const" version="opset1">
			<data element_type="f32" shape="1, 512, 1" offset="16378112" size="2048"/>
			<output>
				<port id="0" precision="FP32">
					<dim>1</dim>
					<dim>512</dim>
					<dim>1</dim>
				</port>
			</output>
		</layer>
		<layer id="285" name="Conv_119" type="Add" version="opset1">
			<data auto_broadcast="numpy"/>
			<input>
				<port id="0" precision="FP32">
					<dim>1</dim>
					<dim>512</dim>
					<dim>128</dim>
				</port>
				<port id="1" precision="FP32">
					<dim>1</dim>
					<dim>512</dim>
					<dim>1</dim>
				</port>
			</input>
			<output>
				<port id="2" precision="FP32" names="1125">
					<dim>1</dim>
					<dim>512</dim>
					<dim>128</dim>
				</port>
			</output>
		</layer>
		<layer id="286" name="Add_120" type="Add" version="opset1">
			<data auto_broadcast="numpy"/>
			<input>
				<port id="0" precision="FP32">
					<dim>1</dim>
					<dim>512</dim>
					<dim>128</dim>
				</port>
				<port id="1" precision="FP32">
					<dim>1</dim>
					<dim>512</dim>
					<dim>128</dim>
				</port>
			</input>
			<output>
				<port id="2" precision="FP32" names="803">
					<dim>1</dim>
					<dim>512</dim>
					<dim>128</dim>
				</port>
			</output>
		</layer>
		<layer id="287" name="Relu_121" type="ReLU" version="opset1">
			<input>
				<port id="0" precision="FP32">
					<dim>1</dim>
					<dim>512</dim>
					<dim>128</dim>
				</port>
			</input>
			<output>
				<port id="1" precision="FP32" names="804">
					<dim>1</dim>
					<dim>512</dim>
					<dim>128</dim>
				</port>
			</output>
		</layer>
		<layer id="288" name="encoder.encoder.8.mconv.0.conv.weight" type="Const" version="opset1">
			<data element_type="f32" shape="512, 1, 1, 51" offset="16380160" size="104448"/>
			<output>
				<port id="0" precision="FP32" names="encoder.encoder.8.mconv.0.conv.weight">
					<dim>512</dim>
					<dim>1</dim>
					<dim>1</dim>
					<dim>51</dim>
				</port>
			</output>
		</layer>
		<layer id="289" name="Conv_122" type="GroupConvolution" version="opset1">
			<data strides="1" pads_begin="25" pads_end="25" dilations="1" auto_pad="explicit"/>
			<input>
				<port id="0" precision="FP32">
					<dim>1</dim>
					<dim>512</dim>
					<dim>128</dim>
				</port>
				<port id="1" precision="FP32">
					<dim>512</dim>
					<dim>1</dim>
					<dim>1</dim>
					<dim>51</dim>
				</port>
			</input>
			<output>
				<port id="2" precision="FP32" names="805">
					<dim>1</dim>
					<dim>512</dim>
					<dim>128</dim>
				</port>
			</output>
		</layer>
		<layer id="290" name="1129" type="Const" version="opset1">
			<data element_type="f32" shape="512, 512, 1" offset="16484608" size="1048576"/>
			<output>
				<port id="0" precision="FP32" names="1129">
					<dim>512</dim>
					<dim>512</dim>
					<dim>1</dim>
				</port>
			</output>
		</layer>
		<layer id="291" name="Conv_123/WithoutBiases" type="Convolution" version="opset1">
			<data strides="1" dilations="1" pads_begin="0" pads_end="0" auto_pad="explicit"/>
			<input>
				<port id="0" precision="FP32">
					<dim>1</dim>
					<dim>512</dim>
					<dim>128</dim>
				</port>
				<port id="1" precision="FP32">
					<dim>512</dim>
					<dim>512</dim>
					<dim>1</dim>
				</port>
			</input>
			<output>
				<port id="2" precision="FP32">
					<dim>1</dim>
					<dim>512</dim>
					<dim>128</dim>
				</port>
			</output>
		</layer>
		<layer id="292" name="Conv_123/Dims5089" type="Const" version="opset1">
			<data element_type="f32" shape="1, 512, 1" offset="17533184" size="2048"/>
			<output>
				<port id="0" precision="FP32">
					<dim>1</dim>
					<dim>512</dim>
					<dim>1</dim>
				</port>
			</output>
		</layer>
		<layer id="293" name="Conv_123" type="Add" version="opset1">
			<data auto_broadcast="numpy"/>
			<input>
				<port id="0" precision="FP32">
					<dim>1</dim>
					<dim>512</dim>
					<dim>128</dim>
				</port>
				<port id="1" precision="FP32">
					<dim>1</dim>
					<dim>512</dim>
					<dim>1</dim>
				</port>
			</input>
			<output>
				<port id="2" precision="FP32" names="1128">
					<dim>1</dim>
					<dim>512</dim>
					<dim>128</dim>
				</port>
			</output>
		</layer>
		<layer id="294" name="Relu_124" type="ReLU" version="opset1">
			<input>
				<port id="0" precision="FP32">
					<dim>1</dim>
					<dim>512</dim>
					<dim>128</dim>
				</port>
			</input>
			<output>
				<port id="1" precision="FP32" names="808">
					<dim>1</dim>
					<dim>512</dim>
					<dim>128</dim>
				</port>
			</output>
		</layer>
		<layer id="295" name="encoder.encoder.8.mconv.5.conv.weight" type="Const" version="opset1">
			<data element_type="f32" shape="512, 1, 1, 51" offset="17535232" size="104448"/>
			<output>
				<port id="0" precision="FP32" names="encoder.encoder.8.mconv.5.conv.weight">
					<dim>512</dim>
					<dim>1</dim>
					<dim>1</dim>
					<dim>51</dim>
				</port>
			</output>
		</layer>
		<layer id="296" name="Conv_125" type="GroupConvolution" version="opset1">
			<data strides="1" pads_begin="25" pads_end="25" dilations="1" auto_pad="explicit"/>
			<input>
				<port id="0" precision="FP32">
					<dim>1</dim>
					<dim>512</dim>
					<dim>128</dim>
				</port>
				<port id="1" precision="FP32">
					<dim>512</dim>
					<dim>1</dim>
					<dim>1</dim>
					<dim>51</dim>
				</port>
			</input>
			<output>
				<port id="2" precision="FP32" names="809">
					<dim>1</dim>
					<dim>512</dim>
					<dim>128</dim>
				</port>
			</output>
		</layer>
		<layer id="297" name="1132" type="Const" version="opset1">
			<data element_type="f32" shape="512, 512, 1" offset="17639680" size="1048576"/>
			<output>
				<port id="0" precision="FP32" names="1132">
					<dim>512</dim>
					<dim>512</dim>
					<dim>1</dim>
				</port>
			</output>
		</layer>
		<layer id="298" name="Conv_126/WithoutBiases" type="Convolution" version="opset1">
			<data strides="1" dilations="1" pads_begin="0" pads_end="0" auto_pad="explicit"/>
			<input>
				<port id="0" precision="FP32">
					<dim>1</dim>
					<dim>512</dim>
					<dim>128</dim>
				</port>
				<port id="1" precision="FP32">
					<dim>512</dim>
					<dim>512</dim>
					<dim>1</dim>
				</port>
			</input>
			<output>
				<port id="2" precision="FP32">
					<dim>1</dim>
					<dim>512</dim>
					<dim>128</dim>
				</port>
			</output>
		</layer>
		<layer id="299" name="Conv_126/Dims5227" type="Const" version="opset1">
			<data element_type="f32" shape="1, 512, 1" offset="18688256" size="2048"/>
			<output>
				<port id="0" precision="FP32">
					<dim>1</dim>
					<dim>512</dim>
					<dim>1</dim>
				</port>
			</output>
		</layer>
		<layer id="300" name="Conv_126" type="Add" version="opset1">
			<data auto_broadcast="numpy"/>
			<input>
				<port id="0" precision="FP32">
					<dim>1</dim>
					<dim>512</dim>
					<dim>128</dim>
				</port>
				<port id="1" precision="FP32">
					<dim>1</dim>
					<dim>512</dim>
					<dim>1</dim>
				</port>
			</input>
			<output>
				<port id="2" precision="FP32" names="1131">
					<dim>1</dim>
					<dim>512</dim>
					<dim>128</dim>
				</port>
			</output>
		</layer>
		<layer id="301" name="Relu_127" type="ReLU" version="opset1">
			<input>
				<port id="0" precision="FP32">
					<dim>1</dim>
					<dim>512</dim>
					<dim>128</dim>
				</port>
			</input>
			<output>
				<port id="1" precision="FP32" names="812">
					<dim>1</dim>
					<dim>512</dim>
					<dim>128</dim>
				</port>
			</output>
		</layer>
		<layer id="302" name="encoder.encoder.8.mconv.10.conv.weight" type="Const" version="opset1">
			<data element_type="f32" shape="512, 1, 1, 51" offset="18690304" size="104448"/>
			<output>
				<port id="0" precision="FP32" names="encoder.encoder.8.mconv.10.conv.weight">
					<dim>512</dim>
					<dim>1</dim>
					<dim>1</dim>
					<dim>51</dim>
				</port>
			</output>
		</layer>
		<layer id="303" name="Conv_128" type="GroupConvolution" version="opset1">
			<data strides="1" pads_begin="25" pads_end="25" dilations="1" auto_pad="explicit"/>
			<input>
				<port id="0" precision="FP32">
					<dim>1</dim>
					<dim>512</dim>
					<dim>128</dim>
				</port>
				<port id="1" precision="FP32">
					<dim>512</dim>
					<dim>1</dim>
					<dim>1</dim>
					<dim>51</dim>
				</port>
			</input>
			<output>
				<port id="2" precision="FP32" names="813">
					<dim>1</dim>
					<dim>512</dim>
					<dim>128</dim>
				</port>
			</output>
		</layer>
		<layer id="304" name="1135" type="Const" version="opset1">
			<data element_type="f32" shape="512, 512, 1" offset="18794752" size="1048576"/>
			<output>
				<port id="0" precision="FP32" names="1135">
					<dim>512</dim>
					<dim>512</dim>
					<dim>1</dim>
				</port>
			</output>
		</layer>
		<layer id="305" name="Conv_129/WithoutBiases" type="Convolution" version="opset1">
			<data strides="1" dilations="1" pads_begin="0" pads_end="0" auto_pad="explicit"/>
			<input>
				<port id="0" precision="FP32">
					<dim>1</dim>
					<dim>512</dim>
					<dim>128</dim>
				</port>
				<port id="1" precision="FP32">
					<dim>512</dim>
					<dim>512</dim>
					<dim>1</dim>
				</port>
			</input>
			<output>
				<port id="2" precision="FP32">
					<dim>1</dim>
					<dim>512</dim>
					<dim>128</dim>
				</port>
			</output>
		</layer>
		<layer id="306" name="Conv_129/Dims4927" type="Const" version="opset1">
			<data element_type="f32" shape="1, 512, 1" offset="19843328" size="2048"/>
			<output>
				<port id="0" precision="FP32">
					<dim>1</dim>
					<dim>512</dim>
					<dim>1</dim>
				</port>
			</output>
		</layer>
		<layer id="307" name="Conv_129" type="Add" version="opset1">
			<data auto_broadcast="numpy"/>
			<input>
				<port id="0" precision="FP32">
					<dim>1</dim>
					<dim>512</dim>
					<dim>128</dim>
				</port>
				<port id="1" precision="FP32">
					<dim>1</dim>
					<dim>512</dim>
					<dim>1</dim>
				</port>
			</input>
			<output>
				<port id="2" precision="FP32" names="1134">
					<dim>1</dim>
					<dim>512</dim>
					<dim>128</dim>
				</port>
			</output>
		</layer>
		<layer id="308" name="Relu_130" type="ReLU" version="opset1">
			<input>
				<port id="0" precision="FP32">
					<dim>1</dim>
					<dim>512</dim>
					<dim>128</dim>
				</port>
			</input>
			<output>
				<port id="1" precision="FP32" names="816">
					<dim>1</dim>
					<dim>512</dim>
					<dim>128</dim>
				</port>
			</output>
		</layer>
		<layer id="309" name="encoder.encoder.8.mconv.15.conv.weight" type="Const" version="opset1">
			<data element_type="f32" shape="512, 1, 1, 51" offset="19845376" size="104448"/>
			<output>
				<port id="0" precision="FP32" names="encoder.encoder.8.mconv.15.conv.weight">
					<dim>512</dim>
					<dim>1</dim>
					<dim>1</dim>
					<dim>51</dim>
				</port>
			</output>
		</layer>
		<layer id="310" name="Conv_131" type="GroupConvolution" version="opset1">
			<data strides="1" pads_begin="25" pads_end="25" dilations="1" auto_pad="explicit"/>
			<input>
				<port id="0" precision="FP32">
					<dim>1</dim>
					<dim>512</dim>
					<dim>128</dim>
				</port>
				<port id="1" precision="FP32">
					<dim>512</dim>
					<dim>1</dim>
					<dim>1</dim>
					<dim>51</dim>
				</port>
			</input>
			<output>
				<port id="2" precision="FP32" names="817">
					<dim>1</dim>
					<dim>512</dim>
					<dim>128</dim>
				</port>
			</output>
		</layer>
		<layer id="311" name="1138" type="Const" version="opset1">
			<data element_type="f32" shape="512, 512, 1" offset="19949824" size="1048576"/>
			<output>
				<port id="0" precision="FP32" names="1138">
					<dim>512</dim>
					<dim>512</dim>
					<dim>1</dim>
				</port>
			</output>
		</layer>
		<layer id="312" name="Conv_132/WithoutBiases" type="Convolution" version="opset1">
			<data strides="1" dilations="1" pads_begin="0" pads_end="0" auto_pad="explicit"/>
			<input>
				<port id="0" precision="FP32">
					<dim>1</dim>
					<dim>512</dim>
					<dim>128</dim>
				</port>
				<port id="1" precision="FP32">
					<dim>512</dim>
					<dim>512</dim>
					<dim>1</dim>
				</port>
			</input>
			<output>
				<port id="2" precision="FP32">
					<dim>1</dim>
					<dim>512</dim>
					<dim>128</dim>
				</port>
			</output>
		</layer>
		<layer id="313" name="Conv_132/Dims5215" type="Const" version="opset1">
			<data element_type="f32" shape="1, 512, 1" offset="20998400" size="2048"/>
			<output>
				<port id="0" precision="FP32">
					<dim>1</dim>
					<dim>512</dim>
					<dim>1</dim>
				</port>
			</output>
		</layer>
		<layer id="314" name="Conv_132" type="Add" version="opset1">
			<data auto_broadcast="numpy"/>
			<input>
				<port id="0" precision="FP32">
					<dim>1</dim>
					<dim>512</dim>
					<dim>128</dim>
				</port>
				<port id="1" precision="FP32">
					<dim>1</dim>
					<dim>512</dim>
					<dim>1</dim>
				</port>
			</input>
			<output>
				<port id="2" precision="FP32" names="1137">
					<dim>1</dim>
					<dim>512</dim>
					<dim>128</dim>
				</port>
			</output>
		</layer>
		<layer id="315" name="Relu_133" type="ReLU" version="opset1">
			<input>
				<port id="0" precision="FP32">
					<dim>1</dim>
					<dim>512</dim>
					<dim>128</dim>
				</port>
			</input>
			<output>
				<port id="1" precision="FP32" names="820">
					<dim>1</dim>
					<dim>512</dim>
					<dim>128</dim>
				</port>
			</output>
		</layer>
		<layer id="316" name="encoder.encoder.8.mconv.20.conv.weight" type="Const" version="opset1">
			<data element_type="f32" shape="512, 1, 1, 51" offset="21000448" size="104448"/>
			<output>
				<port id="0" precision="FP32" names="encoder.encoder.8.mconv.20.conv.weight">
					<dim>512</dim>
					<dim>1</dim>
					<dim>1</dim>
					<dim>51</dim>
				</port>
			</output>
		</layer>
		<layer id="317" name="Conv_134" type="GroupConvolution" version="opset1">
			<data strides="1" pads_begin="25" pads_end="25" dilations="1" auto_pad="explicit"/>
			<input>
				<port id="0" precision="FP32">
					<dim>1</dim>
					<dim>512</dim>
					<dim>128</dim>
				</port>
				<port id="1" precision="FP32">
					<dim>512</dim>
					<dim>1</dim>
					<dim>1</dim>
					<dim>51</dim>
				</port>
			</input>
			<output>
				<port id="2" precision="FP32" names="821">
					<dim>1</dim>
					<dim>512</dim>
					<dim>128</dim>
				</port>
			</output>
		</layer>
		<layer id="318" name="1141" type="Const" version="opset1">
			<data element_type="f32" shape="512, 512, 1" offset="21104896" size="1048576"/>
			<output>
				<port id="0" precision="FP32" names="1141">
					<dim>512</dim>
					<dim>512</dim>
					<dim>1</dim>
				</port>
			</output>
		</layer>
		<layer id="319" name="Conv_135/WithoutBiases" type="Convolution" version="opset1">
			<data strides="1" dilations="1" pads_begin="0" pads_end="0" auto_pad="explicit"/>
			<input>
				<port id="0" precision="FP32">
					<dim>1</dim>
					<dim>512</dim>
					<dim>128</dim>
				</port>
				<port id="1" precision="FP32">
					<dim>512</dim>
					<dim>512</dim>
					<dim>1</dim>
				</port>
			</input>
			<output>
				<port id="2" precision="FP32">
					<dim>1</dim>
					<dim>512</dim>
					<dim>128</dim>
				</port>
			</output>
		</layer>
		<layer id="320" name="Conv_135/Dims5059" type="Const" version="opset1">
			<data element_type="f32" shape="1, 512, 1" offset="22153472" size="2048"/>
			<output>
				<port id="0" precision="FP32">
					<dim>1</dim>
					<dim>512</dim>
					<dim>1</dim>
				</port>
			</output>
		</layer>
		<layer id="321" name="Conv_135" type="Add" version="opset1">
			<data auto_broadcast="numpy"/>
			<input>
				<port id="0" precision="FP32">
					<dim>1</dim>
					<dim>512</dim>
					<dim>128</dim>
				</port>
				<port id="1" precision="FP32">
					<dim>1</dim>
					<dim>512</dim>
					<dim>1</dim>
				</port>
			</input>
			<output>
				<port id="2" precision="FP32" names="1140">
					<dim>1</dim>
					<dim>512</dim>
					<dim>128</dim>
				</port>
			</output>
		</layer>
		<layer id="322" name="1144" type="Const" version="opset1">
			<data element_type="f32" shape="512, 512, 1" offset="22155520" size="1048576"/>
			<output>
				<port id="0" precision="FP32" names="1144">
					<dim>512</dim>
					<dim>512</dim>
					<dim>1</dim>
				</port>
			</output>
		</layer>
		<layer id="323" name="Conv_136/WithoutBiases" type="Convolution" version="opset1">
			<data strides="1" dilations="1" pads_begin="0" pads_end="0" auto_pad="explicit"/>
			<input>
				<port id="0" precision="FP32">
					<dim>1</dim>
					<dim>512</dim>
					<dim>128</dim>
				</port>
				<port id="1" precision="FP32">
					<dim>512</dim>
					<dim>512</dim>
					<dim>1</dim>
				</port>
			</input>
			<output>
				<port id="2" precision="FP32">
					<dim>1</dim>
					<dim>512</dim>
					<dim>128</dim>
				</port>
			</output>
		</layer>
		<layer id="324" name="Conv_136/Dims5305" type="Const" version="opset1">
			<data element_type="f32" shape="1, 512, 1" offset="23204096" size="2048"/>
			<output>
				<port id="0" precision="FP32">
					<dim>1</dim>
					<dim>512</dim>
					<dim>1</dim>
				</port>
			</output>
		</layer>
		<layer id="325" name="Conv_136" type="Add" version="opset1">
			<data auto_broadcast="numpy"/>
			<input>
				<port id="0" precision="FP32">
					<dim>1</dim>
					<dim>512</dim>
					<dim>128</dim>
				</port>
				<port id="1" precision="FP32">
					<dim>1</dim>
					<dim>512</dim>
					<dim>1</dim>
				</port>
			</input>
			<output>
				<port id="2" precision="FP32" names="1143">
					<dim>1</dim>
					<dim>512</dim>
					<dim>128</dim>
				</port>
			</output>
		</layer>
		<layer id="326" name="Add_137" type="Add" version="opset1">
			<data auto_broadcast="numpy"/>
			<input>
				<port id="0" precision="FP32">
					<dim>1</dim>
					<dim>512</dim>
					<dim>128</dim>
				</port>
				<port id="1" precision="FP32">
					<dim>1</dim>
					<dim>512</dim>
					<dim>128</dim>
				</port>
			</input>
			<output>
				<port id="2" precision="FP32" names="826">
					<dim>1</dim>
					<dim>512</dim>
					<dim>128</dim>
				</port>
			</output>
		</layer>
		<layer id="327" name="Relu_138" type="ReLU" version="opset1">
			<input>
				<port id="0" precision="FP32">
					<dim>1</dim>
					<dim>512</dim>
					<dim>128</dim>
				</port>
			</input>
			<output>
				<port id="1" precision="FP32" names="827">
					<dim>1</dim>
					<dim>512</dim>
					<dim>128</dim>
				</port>
			</output>
		</layer>
		<layer id="328" name="encoder.encoder.9.mconv.0.conv.weight" type="Const" version="opset1">
			<data element_type="f32" shape="512, 1, 1, 51" offset="23206144" size="104448"/>
			<output>
				<port id="0" precision="FP32" names="encoder.encoder.9.mconv.0.conv.weight">
					<dim>512</dim>
					<dim>1</dim>
					<dim>1</dim>
					<dim>51</dim>
				</port>
			</output>
		</layer>
		<layer id="329" name="Conv_139" type="GroupConvolution" version="opset1">
			<data strides="1" pads_begin="25" pads_end="25" dilations="1" auto_pad="explicit"/>
			<input>
				<port id="0" precision="FP32">
					<dim>1</dim>
					<dim>512</dim>
					<dim>128</dim>
				</port>
				<port id="1" precision="FP32">
					<dim>512</dim>
					<dim>1</dim>
					<dim>1</dim>
					<dim>51</dim>
				</port>
			</input>
			<output>
				<port id="2" precision="FP32" names="828">
					<dim>1</dim>
					<dim>512</dim>
					<dim>128</dim>
				</port>
			</output>
		</layer>
		<layer id="330" name="1147" type="Const" version="opset1">
			<data element_type="f32" shape="512, 512, 1" offset="23310592" size="1048576"/>
			<output>
				<port id="0" precision="FP32" names="1147">
					<dim>512</dim>
					<dim>512</dim>
					<dim>1</dim>
				</port>
			</output>
		</layer>
		<layer id="331" name="Conv_140/WithoutBiases" type="Convolution" version="opset1">
			<data strides="1" dilations="1" pads_begin="0" pads_end="0" auto_pad="explicit"/>
			<input>
				<port id="0" precision="FP32">
					<dim>1</dim>
					<dim>512</dim>
					<dim>128</dim>
				</port>
				<port id="1" precision="FP32">
					<dim>512</dim>
					<dim>512</dim>
					<dim>1</dim>
				</port>
			</input>
			<output>
				<port id="2" precision="FP32">
					<dim>1</dim>
					<dim>512</dim>
					<dim>128</dim>
				</port>
			</output>
		</layer>
		<layer id="332" name="Conv_140/Dims5005" type="Const" version="opset1">
			<data element_type="f32" shape="1, 512, 1" offset="24359168" size="2048"/>
			<output>
				<port id="0" precision="FP32">
					<dim>1</dim>
					<dim>512</dim>
					<dim>1</dim>
				</port>
			</output>
		</layer>
		<layer id="333" name="Conv_140" type="Add" version="opset1">
			<data auto_broadcast="numpy"/>
			<input>
				<port id="0" precision="FP32">
					<dim>1</dim>
					<dim>512</dim>
					<dim>128</dim>
				</port>
				<port id="1" precision="FP32">
					<dim>1</dim>
					<dim>512</dim>
					<dim>1</dim>
				</port>
			</input>
			<output>
				<port id="2" precision="FP32" names="1146">
					<dim>1</dim>
					<dim>512</dim>
					<dim>128</dim>
				</port>
			</output>
		</layer>
		<layer id="334" name="Relu_141" type="ReLU" version="opset1">
			<input>
				<port id="0" precision="FP32">
					<dim>1</dim>
					<dim>512</dim>
					<dim>128</dim>
				</port>
			</input>
			<output>
				<port id="1" precision="FP32" names="831">
					<dim>1</dim>
					<dim>512</dim>
					<dim>128</dim>
				</port>
			</output>
		</layer>
		<layer id="335" name="encoder.encoder.9.mconv.5.conv.weight" type="Const" version="opset1">
			<data element_type="f32" shape="512, 1, 1, 51" offset="24361216" size="104448"/>
			<output>
				<port id="0" precision="FP32" names="encoder.encoder.9.mconv.5.conv.weight">
					<dim>512</dim>
					<dim>1</dim>
					<dim>1</dim>
					<dim>51</dim>
				</port>
			</output>
		</layer>
		<layer id="336" name="Conv_142" type="GroupConvolution" version="opset1">
			<data strides="1" pads_begin="25" pads_end="25" dilations="1" auto_pad="explicit"/>
			<input>
				<port id="0" precision="FP32">
					<dim>1</dim>
					<dim>512</dim>
					<dim>128</dim>
				</port>
				<port id="1" precision="FP32">
					<dim>512</dim>
					<dim>1</dim>
					<dim>1</dim>
					<dim>51</dim>
				</port>
			</input>
			<output>
				<port id="2" precision="FP32" names="832">
					<dim>1</dim>
					<dim>512</dim>
					<dim>128</dim>
				</port>
			</output>
		</layer>
		<layer id="337" name="1150" type="Const" version="opset1">
			<data element_type="f32" shape="512, 512, 1" offset="24465664" size="1048576"/>
			<output>
				<port id="0" precision="FP32" names="1150">
					<dim>512</dim>
					<dim>512</dim>
					<dim>1</dim>
				</port>
			</output>
		</layer>
		<layer id="338" name="Conv_143/WithoutBiases" type="Convolution" version="opset1">
			<data strides="1" dilations="1" pads_begin="0" pads_end="0" auto_pad="explicit"/>
			<input>
				<port id="0" precision="FP32">
					<dim>1</dim>
					<dim>512</dim>
					<dim>128</dim>
				</port>
				<port id="1" precision="FP32">
					<dim>512</dim>
					<dim>512</dim>
					<dim>1</dim>
				</port>
			</input>
			<output>
				<port id="2" precision="FP32">
					<dim>1</dim>
					<dim>512</dim>
					<dim>128</dim>
				</port>
			</output>
		</layer>
		<layer id="339" name="Conv_143/Dims4915" type="Const" version="opset1">
			<data element_type="f32" shape="1, 512, 1" offset="25514240" size="2048"/>
			<output>
				<port id="0" precision="FP32">
					<dim>1</dim>
					<dim>512</dim>
					<dim>1</dim>
				</port>
			</output>
		</layer>
		<layer id="340" name="Conv_143" type="Add" version="opset1">
			<data auto_broadcast="numpy"/>
			<input>
				<port id="0" precision="FP32">
					<dim>1</dim>
					<dim>512</dim>
					<dim>128</dim>
				</port>
				<port id="1" precision="FP32">
					<dim>1</dim>
					<dim>512</dim>
					<dim>1</dim>
				</port>
			</input>
			<output>
				<port id="2" precision="FP32" names="1149">
					<dim>1</dim>
					<dim>512</dim>
					<dim>128</dim>
				</port>
			</output>
		</layer>
		<layer id="341" name="Relu_144" type="ReLU" version="opset1">
			<input>
				<port id="0" precision="FP32">
					<dim>1</dim>
					<dim>512</dim>
					<dim>128</dim>
				</port>
			</input>
			<output>
				<port id="1" precision="FP32" names="835">
					<dim>1</dim>
					<dim>512</dim>
					<dim>128</dim>
				</port>
			</output>
		</layer>
		<layer id="342" name="encoder.encoder.9.mconv.10.conv.weight" type="Const" version="opset1">
			<data element_type="f32" shape="512, 1, 1, 51" offset="25516288" size="104448"/>
			<output>
				<port id="0" precision="FP32" names="encoder.encoder.9.mconv.10.conv.weight">
					<dim>512</dim>
					<dim>1</dim>
					<dim>1</dim>
					<dim>51</dim>
				</port>
			</output>
		</layer>
		<layer id="343" name="Conv_145" type="GroupConvolution" version="opset1">
			<data strides="1" pads_begin="25" pads_end="25" dilations="1" auto_pad="explicit"/>
			<input>
				<port id="0" precision="FP32">
					<dim>1</dim>
					<dim>512</dim>
					<dim>128</dim>
				</port>
				<port id="1" precision="FP32">
					<dim>512</dim>
					<dim>1</dim>
					<dim>1</dim>
					<dim>51</dim>
				</port>
			</input>
			<output>
				<port id="2" precision="FP32" names="836">
					<dim>1</dim>
					<dim>512</dim>
					<dim>128</dim>
				</port>
			</output>
		</layer>
		<layer id="344" name="1153" type="Const" version="opset1">
			<data element_type="f32" shape="512, 512, 1" offset="25620736" size="1048576"/>
			<output>
				<port id="0" precision="FP32" names="1153">
					<dim>512</dim>
					<dim>512</dim>
					<dim>1</dim>
				</port>
			</output>
		</layer>
		<layer id="345" name="Conv_146/WithoutBiases" type="Convolution" version="opset1">
			<data strides="1" dilations="1" pads_begin="0" pads_end="0" auto_pad="explicit"/>
			<input>
				<port id="0" precision="FP32">
					<dim>1</dim>
					<dim>512</dim>
					<dim>128</dim>
				</port>
				<port id="1" precision="FP32">
					<dim>512</dim>
					<dim>512</dim>
					<dim>1</dim>
				</port>
			</input>
			<output>
				<port id="2" precision="FP32">
					<dim>1</dim>
					<dim>512</dim>
					<dim>128</dim>
				</port>
			</output>
		</layer>
		<layer id="346" name="Conv_146/Dims5341" type="Const" version="opset1">
			<data element_type="f32" shape="1, 512, 1" offset="26669312" size="2048"/>
			<output>
				<port id="0" precision="FP32">
					<dim>1</dim>
					<dim>512</dim>
					<dim>1</dim>
				</port>
			</output>
		</layer>
		<layer id="347" name="Conv_146" type="Add" version="opset1">
			<data auto_broadcast="numpy"/>
			<input>
				<port id="0" precision="FP32">
					<dim>1</dim>
					<dim>512</dim>
					<dim>128</dim>
				</port>
				<port id="1" precision="FP32">
					<dim>1</dim>
					<dim>512</dim>
					<dim>1</dim>
				</port>
			</input>
			<output>
				<port id="2" precision="FP32" names="1152">
					<dim>1</dim>
					<dim>512</dim>
					<dim>128</dim>
				</port>
			</output>
		</layer>
		<layer id="348" name="Relu_147" type="ReLU" version="opset1">
			<input>
				<port id="0" precision="FP32">
					<dim>1</dim>
					<dim>512</dim>
					<dim>128</dim>
				</port>
			</input>
			<output>
				<port id="1" precision="FP32" names="839">
					<dim>1</dim>
					<dim>512</dim>
					<dim>128</dim>
				</port>
			</output>
		</layer>
		<layer id="349" name="encoder.encoder.9.mconv.15.conv.weight" type="Const" version="opset1">
			<data element_type="f32" shape="512, 1, 1, 51" offset="26671360" size="104448"/>
			<output>
				<port id="0" precision="FP32" names="encoder.encoder.9.mconv.15.conv.weight">
					<dim>512</dim>
					<dim>1</dim>
					<dim>1</dim>
					<dim>51</dim>
				</port>
			</output>
		</layer>
		<layer id="350" name="Conv_148" type="GroupConvolution" version="opset1">
			<data strides="1" pads_begin="25" pads_end="25" dilations="1" auto_pad="explicit"/>
			<input>
				<port id="0" precision="FP32">
					<dim>1</dim>
					<dim>512</dim>
					<dim>128</dim>
				</port>
				<port id="1" precision="FP32">
					<dim>512</dim>
					<dim>1</dim>
					<dim>1</dim>
					<dim>51</dim>
				</port>
			</input>
			<output>
				<port id="2" precision="FP32" names="840">
					<dim>1</dim>
					<dim>512</dim>
					<dim>128</dim>
				</port>
			</output>
		</layer>
		<layer id="351" name="1156" type="Const" version="opset1">
			<data element_type="f32" shape="512, 512, 1" offset="26775808" size="1048576"/>
			<output>
				<port id="0" precision="FP32" names="1156">
					<dim>512</dim>
					<dim>512</dim>
					<dim>1</dim>
				</port>
			</output>
		</layer>
		<layer id="352" name="Conv_149/WithoutBiases" type="Convolution" version="opset1">
			<data strides="1" dilations="1" pads_begin="0" pads_end="0" auto_pad="explicit"/>
			<input>
				<port id="0" precision="FP32">
					<dim>1</dim>
					<dim>512</dim>
					<dim>128</dim>
				</port>
				<port id="1" precision="FP32">
					<dim>512</dim>
					<dim>512</dim>
					<dim>1</dim>
				</port>
			</input>
			<output>
				<port id="2" precision="FP32">
					<dim>1</dim>
					<dim>512</dim>
					<dim>128</dim>
				</port>
			</output>
		</layer>
		<layer id="353" name="Conv_149/Dims5125" type="Const" version="opset1">
			<data element_type="f32" shape="1, 512, 1" offset="27824384" size="2048"/>
			<output>
				<port id="0" precision="FP32">
					<dim>1</dim>
					<dim>512</dim>
					<dim>1</dim>
				</port>
			</output>
		</layer>
		<layer id="354" name="Conv_149" type="Add" version="opset1">
			<data auto_broadcast="numpy"/>
			<input>
				<port id="0" precision="FP32">
					<dim>1</dim>
					<dim>512</dim>
					<dim>128</dim>
				</port>
				<port id="1" precision="FP32">
					<dim>1</dim>
					<dim>512</dim>
					<dim>1</dim>
				</port>
			</input>
			<output>
				<port id="2" precision="FP32" names="1155">
					<dim>1</dim>
					<dim>512</dim>
					<dim>128</dim>
				</port>
			</output>
		</layer>
		<layer id="355" name="Relu_150" type="ReLU" version="opset1">
			<input>
				<port id="0" precision="FP32">
					<dim>1</dim>
					<dim>512</dim>
					<dim>128</dim>
				</port>
			</input>
			<output>
				<port id="1" precision="FP32" names="843">
					<dim>1</dim>
					<dim>512</dim>
					<dim>128</dim>
				</port>
			</output>
		</layer>
		<layer id="356" name="encoder.encoder.9.mconv.20.conv.weight" type="Const" version="opset1">
			<data element_type="f32" shape="512, 1, 1, 51" offset="27826432" size="104448"/>
			<output>
				<port id="0" precision="FP32" names="encoder.encoder.9.mconv.20.conv.weight">
					<dim>512</dim>
					<dim>1</dim>
					<dim>1</dim>
					<dim>51</dim>
				</port>
			</output>
		</layer>
		<layer id="357" name="Conv_151" type="GroupConvolution" version="opset1">
			<data strides="1" pads_begin="25" pads_end="25" dilations="1" auto_pad="explicit"/>
			<input>
				<port id="0" precision="FP32">
					<dim>1</dim>
					<dim>512</dim>
					<dim>128</dim>
				</port>
				<port id="1" precision="FP32">
					<dim>512</dim>
					<dim>1</dim>
					<dim>1</dim>
					<dim>51</dim>
				</port>
			</input>
			<output>
				<port id="2" precision="FP32" names="844">
					<dim>1</dim>
					<dim>512</dim>
					<dim>128</dim>
				</port>
			</output>
		</layer>
		<layer id="358" name="1159" type="Const" version="opset1">
			<data element_type="f32" shape="512, 512, 1" offset="27930880" size="1048576"/>
			<output>
				<port id="0" precision="FP32" names="1159">
					<dim>512</dim>
					<dim>512</dim>
					<dim>1</dim>
				</port>
			</output>
		</layer>
		<layer id="359" name="Conv_152/WithoutBiases" type="Convolution" version="opset1">
			<data strides="1" dilations="1" pads_begin="0" pads_end="0" auto_pad="explicit"/>
			<input>
				<port id="0" precision="FP32">
					<dim>1</dim>
					<dim>512</dim>
					<dim>128</dim>
				</port>
				<port id="1" precision="FP32">
					<dim>512</dim>
					<dim>512</dim>
					<dim>1</dim>
				</port>
			</input>
			<output>
				<port id="2" precision="FP32">
					<dim>1</dim>
					<dim>512</dim>
					<dim>128</dim>
				</port>
			</output>
		</layer>
		<layer id="360" name="Conv_152/Dims5263" type="Const" version="opset1">
			<data element_type="f32" shape="1, 512, 1" offset="28979456" size="2048"/>
			<output>
				<port id="0" precision="FP32">
					<dim>1</dim>
					<dim>512</dim>
					<dim>1</dim>
				</port>
			</output>
		</layer>
		<layer id="361" name="Conv_152" type="Add" version="opset1">
			<data auto_broadcast="numpy"/>
			<input>
				<port id="0" precision="FP32">
					<dim>1</dim>
					<dim>512</dim>
					<dim>128</dim>
				</port>
				<port id="1" precision="FP32">
					<dim>1</dim>
					<dim>512</dim>
					<dim>1</dim>
				</port>
			</input>
			<output>
…
			<data element_type="i32" shape="1" offset="75567532" size="4"/>
			<output>
				<port id="0" precision="I32">
					<dim>1</dim>
				</port>
			</output>
		</layer>
		<layer id="629" name="LogSoftmax_265/FlattenONNX_/input_shape/Axis" type="Const" version="opset1">
			<data element_type="i64" shape="" offset="75567536" size="8"/>
			<output>
				<port id="0" precision="I64"/>
			</output>
		</layer>
		<layer id="630" name="LogSoftmax_265/FlattenONNX_/input_shape/Gather" type="Gather" version="opset7">
			<data batch_dims="0"/>
			<input>
				<port id="0" precision="I64">
					<dim>3</dim>
				</port>
				<port id="1" precision="I32">
					<dim>1</dim>
				</port>
				<port id="2" precision="I64"/>
			</input>
			<output>
				<port id="3" precision="I64">
					<dim>1</dim>
				</port>
			</output>
		</layer>
		<layer id="631" name="LogSoftmax_265/FlattenONNX_/first_dims/value" type="Const" version="opset1">
			<data element_type="i64" shape="1" offset="75567536" size="8"/>
			<output>
				<port id="0" precision="I64">
					<dim>1</dim>
				</port>
			</output>
		</layer>
		<layer id="632" name="LogSoftmax_265/FlattenONNX_/first_dims" type="ReduceProd" version="opset1">
			<data keep_dims="true"/>
			<input>
				<port id="0" precision="I64">
					<dim>1</dim>
				</port>
				<port id="1" precision="I64">
					<dim>1</dim>
				</port>
			</input>
			<output>
				<port id="2" precision="I64">
					<dim>1</dim>
				</port>
			</output>
		</layer>
		<layer id="633" name="LogSoftmax_265/FlattenONNX_/second_dims/shapes_concat" type="Concat" version="opset1">
			<data axis="0"/>
			<input>
				<port id="0" precision="I64">
					<dim>1</dim>
				</port>
				<port id="1" precision="I64">
					<dim>1</dim>
				</port>
			</input>
			<output>
				<port id="2" precision="I64">
					<dim>2</dim>
				</port>
			</output>
		</layer>
		<layer id="634" name="LogSoftmax_265/FlattenONNX_/Reshape" type="Reshape" version="opset1">
			<data special_zero="true"/>
			<input>
				<port id="0" precision="FP32">
					<dim>1</dim>
					<dim>128</dim>
					<dim>35</dim>
				</port>
				<port id="1" precision="I64">
					<dim>2</dim>
				</port>
			</input>
			<output>
				<port id="2" precision="FP32">
					<dim>128</dim>
					<dim>35</dim>
				</port>
			</output>
		</layer>
		<layer id="635" name="LogSoftmax_265/LogSoftmax_" type="LogSoftmax" version="opset5">
			<data axis="1"/>
			<input>
				<port id="0" precision="FP32">
					<dim>128</dim>
					<dim>35</dim>
				</port>
			</input>
			<output>
				<port id="1" precision="FP32">
					<dim>128</dim>
					<dim>35</dim>
				</port>
			</output>
		</layer>
		<layer id="636" name="LogSoftmax_265/ShapeOf_" type="ShapeOf" version="opset3">
			<data output_type="i64"/>
			<input>
				<port id="0" precision="FP32">
					<dim>1</dim>
					<dim>128</dim>
					<dim>35</dim>
				</port>
			</input>
			<output>
				<port id="1" precision="I64">
					<dim>3</dim>
				</port>
			</output>
		</layer>
		<layer id="637" name="logprobs" type="Reshape" version="opset1">
			<data special_zero="true"/>
			<input>
				<port id="0" precision="FP32">
					<dim>128</dim>
					<dim>35</dim>
				</port>
				<port id="1" precision="I64">
					<dim>3</dim>
				</port>
			</input>
			<output>
				<port id="2" precision="FP32" names="logprobs">
					<dim>1</dim>
					<dim>128</dim>
					<dim>35</dim>
				</port>
			</output>
		</layer>
		<layer id="638" name="logprobs/sink_port_0" type="Result" version="opset1">
			<input>
				<port id="0" precision="FP32">
					<dim>1</dim>
					<dim>128</dim>
					<dim>35</dim>
				</port>
			</input>
		</layer>
	</layers>
	<edges>
		<edge from-layer="0" from-port="0" to-layer="2" to-port="0"/>
		<edge from-layer="1" from-port="0" to-layer="2" to-port="1"/>
		<edge from-layer="2" from-port="2" to-layer="4" to-port="0"/>
		<edge from-layer="3" from-port="0" to-layer="4" to-port="1"/>
		<edge from-layer="4" from-port="2" to-layer="6" to-port="0"/>
		<edge from-layer="5" from-port="0" to-layer="6" to-port="1"/>
		<edge from-layer="6" from-port="2" to-layer="7" to-port="0"/>
		<edge from-layer="7" from-port="1" to-layer="43" to-port="0"/>
		<edge from-layer="7" from-port="1" to-layer="9" to-port="0"/>
		<edge from-layer="8" from-port="0" to-layer="9" to-port="1"/>
		<edge from-layer="9" from-port="2" to-layer="11" to-port="0"/>
		<edge from-layer="10" from-port="0" to-layer="11" to-port="1"/>
		<edge from-layer="11" from-port="2" to-layer="13" to-port="0"/>
		<edge from-layer="12" from-port="0" to-layer="13" to-port="1"/>
		<edge from-layer="13" from-port="2" to-layer="14" to-port="0"/>
		<edge from-layer="14" from-port="1" to-layer="16" to-port="0"/>
		<edge from-layer="15" from-port="0" to-layer="16" to-port="1"/>
		<edge from-layer="16" from-port="2" to-layer="18" to-port="0"/>
		<edge from-layer="17" from-port="0" to-layer="18" to-port="1"/>
		<edge from-layer="18" from-port="2" to-layer="20" to-port="0"/>
		<edge from-layer="19" from-port="0" to-layer="20" to-port="1"/>
		<edge from-layer="20" from-port="2" to-layer="21" to-port="0"/>
		<edge from-layer="21" from-port="1" to-layer="23" to-port="0"/>
		<edge from-layer="22" from-port="0" to-layer="23" to-port="1"/>
		<edge from-layer="23" from-port="2" to-layer="25" to-port="0"/>
		<edge from-layer="24" from-port="0" to-layer="25" to-port="1"/>
		<edge from-layer="25" from-port="2" to-layer="27" to-port="0"/>
		<edge from-layer="26" from-port="0" to-layer="27" to-port="1"/>
		<edge from-layer="27" from-port="2" to-layer="28" to-port="0"/>
		<edge from-layer="28" from-port="1" to-layer="30" to-port="0"/>
		<edge from-layer="29" from-port="0" to-layer="30" to-port="1"/>
		<edge from-layer="30" from-port="2" to-layer="32" to-port="0"/>
		<edge from-layer="31" from-port="0" to-layer="32" to-port="1"/>
		<edge from-layer="32" from-port="2" to-layer="34" to-port="0"/>
		<edge from-layer="33" from-port="0" to-layer="34" to-port="1"/>
		<edge from-layer="34" from-port="2" to-layer="35" to-port="0"/>
		<edge from-layer="35" from-port="1" to-layer="37" to-port="0"/>
		<edge from-layer="36" from-port="0" to-layer="37" to-port="1"/>
		<edge from-layer="37" from-port="2" to-layer="39" to-port="0"/>
		<edge from-layer="38" from-port="0" to-layer="39" to-port="1"/>
		<edge from-layer="39" from-port="2" to-layer="41" to-port="0"/>
		<edge from-layer="40" from-port="0" to-layer="41" to-port="1"/>
		<edge from-layer="41" from-port="2" to-layer="46" to-port="0"/>
		<edge from-layer="42" from-port="0" to-layer="43" to-port="1"/>
		<edge from-layer="43" from-port="2" to-layer="45" to-port="0"/>
		<edge from-layer="44" from-port="0" to-layer="45" to-port="1"/>
		<edge from-layer="45" from-port="2" to-layer="46" to-port="1"/>
		<edge from-layer="46" from-port="2" to-layer="47" to-port="0"/>
		<edge from-layer="47" from-port="1" to-layer="83" to-port="0"/>
		<edge from-layer="47" from-port="1" to-layer="49" to-port="0"/>
		<edge from-layer="48" from-port="0" to-layer="49" to-port="1"/>
		<edge from-layer="49" from-port="2" to-layer="51" to-port="0"/>
		<edge from-layer="50" from-port="0" to-layer="51" to-port="1"/>
		<edge from-layer="51" from-port="2" to-layer="53" to-port="0"/>
		<edge from-layer="52" from-port="0" to-layer="53" to-port="1"/>
		<edge from-layer="53" from-port="2" to-layer="54" to-port="0"/>
		<edge from-layer="54" from-port="1" to-layer="56" to-port="0"/>
		<edge from-layer="55" from-port="0" to-layer="56" to-port="1"/>
		<edge from-layer="56" from-port="2" to-layer="58" to-port="0"/>
		<edge from-layer="57" from-port="0" to-layer="58" to-port="1"/>
		<edge from-layer="58" from-port="2" to-layer="60" to-port="0"/>
		<edge from-layer="59" from-port="0" to-layer="60" to-port="1"/>
		<edge from-layer="60" from-port="2" to-layer="61" to-port="0"/>
		<edge from-layer="61" from-port="1" to-layer="63" to-port="0"/>
		<edge from-layer="62" from-port="0" to-layer="63" to-port="1"/>
		<edge from-layer="63" from-port="2" to-layer="65" to-port="0"/>
		<edge from-layer="64" from-port="0" to-layer="65" to-port="1"/>
		<edge from-layer="65" from-port="2" to-layer="67" to-port="0"/>
		<edge from-layer="66" from-port="0" to-layer="67" to-port="1"/>
		<edge from-layer="67" from-port="2" to-layer="68" to-port="0"/>
		<edge from-layer="68" from-port="1" to-layer="70" to-port="0"/>
		<edge from-layer="69" from-port="0" to-layer="70" to-port="1"/>
		<edge from-layer="70" from-port="2" to-layer="72" to-port="0"/>
		<edge from-layer="71" from-port="0" to-layer="72" to-port="1"/>
		<edge from-layer="72" from-port="2" to-layer="74" to-port="0"/>
		<edge from-layer="73" from-port="0" to-layer="74" to-port="1"/>
		<edge from-layer="74" from-port="2" to-layer="75" to-port="0"/>
		<edge from-layer="75" from-port="1" to-layer="77" to-port="0"/>
		<edge from-layer="76" from-port="0" to-layer="77" to-port="1"/>
		<edge from-layer="77" from-port="2" to-layer="79" to-port="0"/>
		<edge from-layer="78" from-port="0" to-layer="79" to-port="1"/>
		<edge from-layer="79" from-port="2" to-layer="81" to-port="0"/>
		<edge from-layer="80" from-port="0" to-layer="81" to-port="1"/>
		<edge from-layer="81" from-port="2" to-layer="86" to-port="0"/>
		<edge from-layer="82" from-port="0" to-layer="83" to-port="1"/>
		<edge from-layer="83" from-port="2" to-layer="85" to-port="0"/>
		<edge from-layer="84" from-port="0" to-layer="85" to-port="1"/>
		<edge from-layer="85" from-port="2" to-layer="86" to-port="1"/>
		<edge from-layer="86" from-port="2" to-layer="87" to-port="0"/>
		<edge from-layer="87" from-port="1" to-layer="89" to-port="0"/>
		<edge from-layer="87" from-port="1" to-layer="123" to-port="0"/>
		<edge from-layer="88" from-port="0" to-layer="89" to-port="1"/>
		<edge from-layer="89" from-port="2" to-layer="91" to-port="0"/>
		<edge from-layer="90" from-port="0" to-layer="91" to-port="1"/>
		<edge from-layer="91" from-port="2" to-layer="93" to-port="0"/>
		<edge from-layer="92" from-port="0" to-layer="93" to-port="1"/>
		<edge from-layer="93" from-port="2" to-layer="94" to-port="0"/>
		<edge from-layer="94" from-port="1" to-layer="96" to-port="0"/>
		<edge from-layer="95" from-port="0" to-layer="96" to-port="1"/>
		<edge from-layer="96" from-port="2" to-layer="98" to-port="0"/>
		<edge from-layer="97" from-port="0" to-layer="98" to-port="1"/>
		<edge from-layer="98" from-port="2" to-layer="100" to-port="0"/>
		<edge from-layer="99" from-port="0" to-layer="100" to-port="1"/>
		<edge from-layer="100" from-port="2" to-layer="101" to-port="0"/>
		<edge from-layer="101" from-port="1" to-layer="103" to-port="0"/>
		<edge from-layer="102" from-port="0" to-layer="103" to-port="1"/>
		<edge from-layer="103" from-port="2" to-layer="105" to-port="0"/>
		<edge from-layer="104" from-port="0" to-layer="105" to-port="1"/>
		<edge from-layer="105" from-port="2" to-layer="107" to-port="0"/>
		<edge from-layer="106" from-port="0" to-layer="107" to-port="1"/>
		<edge from-layer="107" from-port="2" to-layer="108" to-port="0"/>
		<edge from-layer="108" from-port="1" to-layer="110" to-port="0"/>
		<edge from-layer="109" from-port="0" to-layer="110" to-port="1"/>
		<edge from-layer="110" from-port="2" to-layer="112" to-port="0"/>
		<edge from-layer="111" from-port="0" to-layer="112" to-port="1"/>
		<edge from-layer="112" from-port="2" to-layer="114" to-port="0"/>
		<edge from-layer="113" from-port="0" to-layer="114" to-port="1"/>
		<edge from-layer="114" from-port="2" to-layer="115" to-port="0"/>
		<edge from-layer="115" from-port="1" to-layer="117" to-port="0"/>
		<edge from-layer="116" from-port="0" to-layer="117" to-port="1"/>
		<edge from-layer="117" from-port="2" to-layer="119" to-port="0"/>
		<edge from-layer="118" from-port="0" to-layer="119" to-port="1"/>
		<edge from-layer="119" from-port="2" to-layer="121" to-port="0"/>
		<edge from-layer="120" from-port="0" to-layer="121" to-port="1"/>
		<edge from-layer="121" from-port="2" to-layer="126" to-port="0"/>
		<edge from-layer="122" from-port="0" to-layer="123" to-port="1"/>
		<edge from-layer="123" from-port="2" to-layer="125" to-port="0"/>
		<edge from-layer="124" from-port="0" to-layer="125" to-port="1"/>
		<edge from-layer="125" from-port="2" to-layer="126" to-port="1"/>
		<edge from-layer="126" from-port="2" to-layer="127" to-port="0"/>
		<edge from-layer="127" from-port="1" to-layer="163" to-port="0"/>
		<edge from-layer="127" from-port="1" to-layer="129" to-port="0"/>
		<edge from-layer="128" from-port="0" to-layer="129" to-port="1"/>
		<edge from-layer="129" from-port="2" to-layer="131" to-port="0"/>
		<edge from-layer="130" from-port="0" to-layer="131" to-port="1"/>
		<edge from-layer="131" from-port="2" to-layer="133" to-port="0"/>
		<edge from-layer="132" from-port="0" to-layer="133" to-port="1"/>
		<edge from-layer="133" from-port="2" to-layer="134" to-port="0"/>
		<edge from-layer="134" from-port="1" to-layer="136" to-port="0"/>
		<edge from-layer="135" from-port="0" to-layer="136" to-port="1"/>
		<edge from-layer="136" from-port="2" to-layer="138" to-port="0"/>
		<edge from-layer="137" from-port="0" to-layer="138" to-port="1"/>
		<edge from-layer="138" from-port="2" to-layer="140" to-port="0"/>
		<edge from-layer="139" from-port="0" to-layer="140" to-port="1"/>
		<edge from-layer="140" from-port="2" to-layer="141" to-port="0"/>
		<edge from-layer="141" from-port="1" to-layer="143" to-port="0"/>
		<edge from-layer="142" from-port="0" to-layer="143" to-port="1"/>
		<edge from-layer="143" from-port="2" to-layer="145" to-port="0"/>
		<edge from-layer="144" from-port="0" to-layer="145" to-port="1"/>
		<edge from-layer="145" from-port="2" to-layer="147" to-port="0"/>
		<edge from-layer="146" from-port="0" to-layer="147" to-port="1"/>
		<edge from-layer="147" from-port="2" to-layer="148" to-port="0"/>
		<edge from-layer="148" from-port="1" to-layer="150" to-port="0"/>
		<edge from-layer="149" from-port="0" to-layer="150" to-port="1"/>
		<edge from-layer="150" from-port="2" to-layer="152" to-port="0"/>
		<edge from-layer="151" from-port="0" to-layer="152" to-port="1"/>
		<edge from-layer="152" from-port="2" to-layer="154" to-port="0"/>
		<edge from-layer="153" from-port="0" to-layer="154" to-port="1"/>
		<edge from-layer="154" from-port="2" to-layer="155" to-port="0"/>
		<edge from-layer="155" from-port="1" to-layer="157" to-port="0"/>
		<edge from-layer="156" from-port="0" to-layer="157" to-port="1"/>
		<edge from-layer="157" from-port="2" to-layer="159" to-port="0"/>
		<edge from-layer="158" from-port="0" to-layer="159" to-port="1"/>
		<edge from-layer="159" from-port="2" to-layer="161" to-port="0"/>
		<edge from-layer="160" from-port="0" to-layer="161" to-port="1"/>
		<edge from-layer="161" from-port="2" to-layer="166" to-port="0"/>
		<edge from-layer="162" from-port="0" to-layer="163" to-port="1"/>
		<edge from-layer="163" from-port="2" to-layer="165" to-port="0"/>
		<edge from-layer="164" from-port="0" to-layer="165" to-port="1"/>
		<edge from-layer="165" from-port="2" to-layer="166" to-port="1"/>
		<edge from-layer="166" from-port="2" to-layer="167" to-port="0"/>
		<edge from-layer="167" from-port="1" to-layer="203" to-port="0"/>
		<edge from-layer="167" from-port="1" to-layer="169" to-port="0"/>
		<edge from-layer="168" from-port="0" to-layer="169" to-port="1"/>
		<edge from-layer="169" from-port="2" to-layer="171" to-port="0"/>
		<edge from-layer="170" from-port="0" to-layer="171" to-port="1"/>
		<edge from-layer="171" from-port="2" to-layer="173" to-port="0"/>
		<edge from-layer="172" from-port="0" to-layer="173" to-port="1"/>
		<edge from-layer="173" from-port="2" to-layer="174" to-port="0"/>
		<edge from-layer="174" from-port="1" to-layer="176" to-port="0"/>
		<edge from-layer="175" from-port="0" to-layer="176" to-port="1"/>
		<edge from-layer="176" from-port="2" to-layer="178" to-port="0"/>
		<edge from-layer="177" from-port="0" to-layer="178" to-port="1"/>
		<edge from-layer="178" from-port="2" to-layer="180" to-port="0"/>
		<edge from-layer="179" from-port="0" to-layer="180" to-port="1"/>
		<edge from-layer="180" from-port="2" to-layer="181" to-port="0"/>
		<edge from-layer="181" from-port="1" to-layer="183" to-port="0"/>
		<edge from-layer="182" from-port="0" to-layer="183" to-port="1"/>
		<edge from-layer="183" from-port="2" to-layer="185" to-port="0"/>
		<edge from-layer="184" from-port="0" to-layer="185" to-port="1"/>
		<edge from-layer="185" from-port="2" to-layer="187" to-port="0"/>
		<edge from-layer="186" from-port="0" to-layer="187" to-port="1"/>
		<edge from-layer="187" from-port="2" to-layer="188" to-port="0"/>
		<edge from-layer="188" from-port="1" to-layer="190" to-port="0"/>
		<edge from-layer="189" from-port="0" to-layer="190" to-port="1"/>
		<edge from-layer="190" from-port="2" to-layer="192" to-port="0"/>
		<edge from-layer="191" from-port="0" to-layer="192" to-port="1"/>
		<edge from-layer="192" from-port="2" to-layer="194" to-port="0"/>
		<edge from-layer="193" from-port="0" to-layer="194" to-port="1"/>
		<edge from-layer="194" from-port="2" to-layer="195" to-port="0"/>
		<edge from-layer="195" from-port="1" to-layer="197" to-port="0"/>
		<edge from-layer="196" from-port="0" to-layer="197" to-port="1"/>
		<edge from-layer="197" from-port="2" to-layer="199" to-port="0"/>
		<edge from-layer="198" from-port="0" to-layer="199" to-port="1"/>
		<edge from-layer="199" from-port="2" to-layer="201" to-port="0"/>
		<edge from-layer="200" from-port="0" to-layer="201" to-port="1"/>
		<edge from-layer="201" from-port="2" to-layer="206" to-port="0"/>
		<edge from-layer="202" from-port="0" to-layer="203" to-port="1"/>
		<edge from-layer="203" from-port="2" to-layer="205" to-port="0"/>
		<edge from-layer="204" from-port="0" to-layer="205" to-port="1"/>
		<edge from-layer="205" from-port="2" to-layer="206" to-port="1"/>
		<edge from-layer="206" from-port="2" to-layer="207" to-port="0"/>
		<edge from-layer="207" from-port="1" to-layer="243" to-port="0"/>
		<edge from-layer="207" from-port="1" to-layer="209" to-port="0"/>
		<edge from-layer="208" from-port="0" to-layer="209" to-port="1"/>
		<edge from-layer="209" from-port="2" to-layer="211" to-port="0"/>
		<edge from-layer="210" from-port="0" to-layer="211" to-port="1"/>
		<edge from-layer="211" from-port="2" to-layer="213" to-port="0"/>
		<edge from-layer="212" from-port="0" to-layer="213" to-port="1"/>
		<edge from-layer="213" from-port="2" to-layer="214" to-port="0"/>
		<edge from-layer="214" from-port="1" to-layer="216" to-port="0"/>
		<edge from-layer="215" from-port="0" to-layer="216" to-port="1"/>
		<edge from-layer="216" from-port="2" to-layer="218" to-port="0"/>
		<edge from-layer="217" from-port="0" to-layer="218" to-port="1"/>
		<edge from-layer="218" from-port="2" to-layer="220" to-port="0"/>
		<edge from-layer="219" from-port="0" to-layer="220" to-port="1"/>
		<edge from-layer="220" from-port="2" to-layer="221" to-port="0"/>
		<edge from-layer="221" from-port="1" to-layer="223" to-port="0"/>
		<edge from-layer="222" from-port="0" to-layer="223" to-port="1"/>
		<edge from-layer="223" from-port="2" to-layer="225" to-port="0"/>
		<edge from-layer="224" from-port="0" to-layer="225" to-port="1"/>
		<edge from-layer="225" from-port="2" to-layer="227" to-port="0"/>
		<edge from-layer="226" from-port="0" to-layer="227" to-port="1"/>
		<edge from-layer="227" from-port="2" to-layer="228" to-port="0"/>
		<edge from-layer="228" from-port="1" to-layer="230" to-port="0"/>
		<edge from-layer="229" from-port="0" to-layer="230" to-port="1"/>
		<edge from-layer="230" from-port="2" to-layer="232" to-port="0"/>
		<edge from-layer="231" from-port="0" to-layer="232" to-port="1"/>
		<edge from-layer="232" from-port="2" to-layer="234" to-port="0"/>
		<edge from-layer="233" from-port="0" to-layer="234" to-port="1"/>
		<edge from-layer="234" from-port="2" to-layer="235" to-port="0"/>
		<edge from-layer="235" from-port="1" to-layer="237" to-port="0"/>
		<edge from-layer="236" from-port="0" to-layer="237" to-port="1"/>
		<edge from-layer="237" from-port="2" to-layer="239" to-port="0"/>
		<edge from-layer="238" from-port="0" to-layer="239" to-port="1"/>
		<edge from-layer="239" from-port="2" to-layer="241" to-port="0"/>
		<edge from-layer="240" from-port="0" to-layer="241" to-port="1"/>
		<edge from-layer="241" from-port="2" to-layer="246" to-port="0"/>
		<edge from-layer="242" from-port="0" to-layer="243" to-port="1"/>
		<edge from-layer="243" from-port="2" to-layer="245" to-port="0"/>
		<edge from-layer="244" from-port="0" to-layer="245" to-port="1"/>
		<edge from-layer="245" from-port="2" to-layer="246" to-port="1"/>
		<edge from-layer="246" from-port="2" to-layer="247" to-port="0"/>
		<edge from-layer="247" from-port="1" to-layer="283" to-port="0"/>
		<edge from-layer="247" from-port="1" to-layer="249" to-port="0"/>
		<edge from-layer="248" from-port="0" to-layer="249" to-port="1"/>
		<edge from-layer="249" from-port="2" to-layer="251" to-port="0"/>
		<edge from-layer="250" from-port="0" to-layer="251" to-port="1"/>
		<edge from-layer="251" from-port="2" to-layer="253" to-port="0"/>
		<edge from-layer="252" from-port="0" to-layer="253" to-port="1"/>
		<edge from-layer="253" from-port="2" to-layer="254" to-port="0"/>
		<edge from-layer="254" from-port="1" to-layer="256" to-port="0"/>
		<edge from-layer="255" from-port="0" to-layer="256" to-port="1"/>
		<edge from-layer="256" from-port="2" to-layer="258" to-port="0"/>
		<edge from-layer="257" from-port="0" to-layer="258" to-port="1"/>
		<edge from-layer="258" from-port="2" to-layer="260" to-port="0"/>
		<edge from-layer="259" from-port="0" to-layer="260" to-port="1"/>
		<edge from-layer="260" from-port="2" to-layer="261" to-port="0"/>
		<edge from-layer="261" from-port="1" to-layer="263" to-port="0"/>
		<edge from-layer="262" from-port="0" to-layer="263" to-port="1"/>
		<edge from-layer="263" from-port="2" to-layer="265" to-port="0"/>
		<edge from-layer="264" from-port="0" to-layer="265" to-port="1"/>
		<edge from-layer="265" from-port="2" to-layer="267" to-port="0"/>
		<edge from-layer="266" from-port="0" to-layer="267" to-port="1"/>
		<edge from-layer="267" from-port="2" to-layer="268" to-port="0"/>
		<edge from-layer="268" from-port="1" to-layer="270" to-port="0"/>
		<edge from-layer="269" from-port="0" to-layer="270" to-port="1"/>
		<edge from-layer="270" from-port="2" to-layer="272" to-port="0"/>
		<edge from-layer="271" from-port="0" to-layer="272" to-port="1"/>
		<edge from-layer="272" from-port="2" to-layer="274" to-port="0"/>
		<edge from-layer="273" from-port="0" to-layer="274" to-port="1"/>
		<edge from-layer="274" from-port="2" to-layer="275" to-port="0"/>
		<edge from-layer="275" from-port="1" to-layer="277" to-port="0"/>
		<edge from-layer="276" from-port="0" to-layer="277" to-port="1"/>
		<edge from-layer="277" from-port="2" to-layer="279" to-port="0"/>
		<edge from-layer="278" from-port="0" to-layer="279" to-port="1"/>
		<edge from-layer="279" from-port="2" to-layer="281" to-port="0"/>
		<edge from-layer="280" from-port="0" to-layer="281" to-port="1"/>
		<edge from-layer="281" from-port="2" to-layer="286" to-port="0"/>
		<edge from-layer="282" from-port="0" to-layer="283" to-port="1"/>
		<edge from-layer="283" from-port="2" to-layer="285" to-port="0"/>
		<edge from-layer="284" from-port="0" to-layer="285" to-port="1"/>
		<edge from-layer="285" from-port="2" to-layer="286" to-port="1"/>
		<edge from-layer="286" from-port="2" to-layer="287" to-port="0"/>
		<edge from-layer="287" from-port="1" to-layer="323" to-port="0"/>
		<edge from-layer="287" from-port="1" to-layer="289" to-port="0"/>
		<edge from-layer="288" from-port="0" to-layer="289" to-port="1"/>
		<edge from-layer="289" from-port="2" to-layer="291" to-port="0"/>
		<edge from-layer="290" from-port="0" to-layer="291" to-port="1"/>
		<edge from-layer="291" from-port="2" to-layer="293" to-port="0"/>
		<edge from-layer="292" from-port="0" to-layer="293" to-port="1"/>
		<edge from-layer="293" from-port="2" to-layer="294" to-port="0"/>
		<edge from-layer="294" from-port="1" to-layer="296" to-port="0"/>
		<edge from-layer="295" from-port="0" to-layer="296" to-port="1"/>
		<edge from-layer="296" from-port="2" to-layer="298" to-port="0"/>
		<edge from-layer="297" from-port="0" to-layer="298" to-port="1"/>
		<edge from-layer="298" from-port="2" to-layer="300" to-port="0"/>
		<edge from-layer="299" from-port="0" to-layer="300" to-port="1"/>
		<edge from-layer="300" from-port="2" to-layer="301" to-port="0"/>
		<edge from-layer="301" from-port="1" to-layer="303" to-port="0"/>
		<edge from-layer="302" from-port="0" to-layer="303" to-port="1"/>
		<edge from-layer="303" from-port="2" to-layer="305" to-port="0"/>
		<edge from-layer="304" from-port="0" to-layer="305" to-port="1"/>
		<edge from-layer="305" from-port="2" to-layer="307" to-port="0"/>
		<edge from-layer="306" from-port="0" to-layer="307" to-port="1"/>
		<edge from-layer="307" from-port="2" to-layer="308" to-port="0"/>
		<edge from-layer="308" from-port="1" to-layer="310" to-port="0"/>
		<edge from-layer="309" from-port="0" to-layer="310" to-port="1"/>
		<edge from-layer="310" from-port="2" to-layer="312" to-port="0"/>
		<edge from-layer="311" from-port="0" to-layer="312" to-port="1"/>
		<edge from-layer="312" from-port="2" to-layer="314" to-port="0"/>
		<edge from-layer="313" from-port="0" to-layer="314" to-port="1"/>
		<edge from-layer="314" from-port="2" to-layer="315" to-port="0"/>
		<edge from-layer="315" from-port="1" to-layer="317" to-port="0"/>
		<edge from-layer="316" from-port="0" to-layer="317" to-port="1"/>
		<edge from-layer="317" from-port="2" to-layer="319" to-port="0"/>
		<edge from-layer="318" from-port="0" to-layer="319" to-port="1"/>
		<edge from-layer="319" from-port="2" to-layer="321" to-port="0"/>
		<edge from-layer="320" from-port="0" to-layer="321" to-port="1"/>
		<edge from-layer="321" from-port="2" to-layer="326" to-port="0"/>
		<edge from-layer="322" from-port="0" to-layer="323" to-port="1"/>
		<edge from-layer="323" from-port="2" to-layer="325" to-port="0"/>
		<edge from-layer="324" from-port="0" to-layer="325" to-port="1"/>
		<edge from-layer="325" from-port="2" to-layer="326" to-port="1"/>
		<edge from-layer="326" from-port="2" to-layer="327" to-port="0"/>
		<edge from-layer="327" from-port="1" to-layer="363" to-port="0"/>
		<edge from-layer="327" from-port="1" to-layer="329" to-port="0"/>
		<edge from-layer="328" from-port="0" to-layer="329" to-port="1"/>
		<edge from-layer="329" from-port="2" to-layer="331" to-port="0"/>
		<edge from-layer="330" from-port="0" to-layer="331" to-port="1"/>
		<edge from-layer="331" from-port="2" to-layer="333" to-port="0"/>
		<edge from-layer="332" from-port="0" to-layer="333" to-port="1"/>
		<edge from-layer="333" from-port="2" to-layer="334" to-port="0"/>
		<edge from-layer="334" from-port="1" to-layer="336" to-port="0"/>
		<edge from-layer="335" from-port="0" to-layer="336" to-port="1"/>
		<edge from-layer="336" from-port="2" to-layer="338" to-port="0"/>
		<edge from-layer="337" from-port="0" to-layer="338" to-port="1"/>
		<edge from-layer="338" from-port="2" to-layer="340" to-port="0"/>
		<edge from-layer="339" from-port="0" to-layer="340" to-port="1"/>
		<edge from-layer="340" from-port="2" to-layer="341" to-port="0"/>
		<edge from-layer="341" from-port="1" to-layer="343" to-port="0"/>
		<edge from-layer="342" from-port="0" to-layer="343" to-port="1"/>
		<edge from-layer="343" from-port="2" to-layer="345" to-port="0"/>
		<edge from-layer="344" from-port="0" to-layer="345" to-port="1"/>
		<edge from-layer="345" from-port="2" to-layer="347" to-port="0"/>
		<edge from-layer="346" from-port="0" to-layer="347" to-port="1"/>
		<edge from-layer="347" from-port="2" to-layer="348" to-port="0"/>
		<edge from-layer="348" from-port="1" to-layer="350" to-port="0"/>
		<edge from-layer="349" from-port="0" to-layer="350" to-port="1"/>
		<edge from-layer="350" from-port="2" to-layer="352" to-port="0"/>
		<edge from-layer="351" from-port="0" to-layer="352" to-port="1"/>
		<edge from-layer="352" from-port="2" to-layer="354" to-port="0"/>
		<edge from-layer="353" from-port="0" to-layer="354" to-port="1"/>
		<edge from-layer="354" from-port="2" to-layer="355" to-port="0"/>
		<edge from-layer="355" from-port="1" to-layer="357" to-port="0"/>
		<edge from-layer="356" from-port="0" to-layer="357" to-port="1"/>
		<edge from-layer="357" from-port="2" to-layer="359" to-port="0"/>
		<edge from-layer="358" from-port="0" to-layer="359" to-port="1"/>
		<edge from-layer="359" from-port="2" to-layer="361" to-port="0"/>
		<edge from-layer="360" from-port="0" to-layer="361" to-port="1"/>
		<edge from-layer="361" from-port="2" to-layer="366" to-port="0"/>
		<edge from-layer="362" from-port="0" to-layer="363" to-port="1"/>
		<edge from-layer="363" from-port="2" to-layer="365" to-port="0"/>
		<edge from-layer="364" from-port="0" to-layer="365" to-port="1"/>
		<edge from-layer="365" from-port="2" to-layer="366" to-port="1"/>
		<edge from-layer="366" from-port="2" to-layer="367" to-port="0"/>
		<edge from-layer="367" from-port="1" to-layer="403" to-port="0"/>
		<edge from-layer="367" from-port="1" to-layer="369" to-port="0"/>
		<edge from-layer="368" from-port="0" to-layer="369" to-port="1"/>
		<edge from-layer="369" from-port="2" to-layer="371" to-port="0"/>
		<edge from-layer="370" from-port="0" to-layer="371" to-port="1"/>
		<edge from-layer="371" from-port="2" to-layer="373" to-port="0"/>
		<edge from-layer="372" from-port="0" to-layer="373" to-port="1"/>
		<edge from-layer="373" from-port="2" to-layer="374" to-port="0"/>
		<edge from-layer="374" from-port="1" to-layer="376" to-port="0"/>
		<edge from-layer="375" from-port="0" to-layer="376" to-port="1"/>
		<edge from-layer="376" from-port="2" to-layer="378" to-port="0"/>
		<edge from-layer="377" from-port="0" to-layer="378" to-port="1"/>
		<edge from-layer="378" from-port="2" to-layer="380" to-port="0"/>
		<edge from-layer="379" from-port="0" to-layer="380" to-port="1"/>
		<edge from-layer="380" from-port="2" to-layer="381" to-port="0"/>
		<edge from-layer="381" from-port="1" to-layer="383" to-port="0"/>
		<edge from-layer="382" from-port="0" to-layer="383" to-port="1"/>
		<edge from-layer="383" from-port="2" to-layer="385" to-port="0"/>
		<edge from-layer="384" from-port="0" to-layer="385" to-port="1"/>
		<edge from-layer="385" from-port="2" to-layer="387" to-port="0"/>
		<edge from-layer="386" from-port="0" to-layer="387" to-port="1"/>
		<edge from-layer="387" from-port="2" to-layer="388" to-port="0"/>
		<edge from-layer="388" from-port="1" to-layer="390" to-port="0"/>
		<edge from-layer="389" from-port="0" to-layer="390" to-port="1"/>
		<edge from-layer="390" from-port="2" to-layer="392" to-port="0"/>
		<edge from-layer="391" from-port="0" to-layer="392" to-port="1"/>
		<edge from-layer="392" from-port="2" to-layer="394" to-port="0"/>
		<edge from-layer="393" from-port="0" to-layer="394" to-port="1"/>
		<edge from-layer="394" from-port="2" to-layer="395" to-port="0"/>
		<edge from-layer="395" from-port="1" to-layer="397" to-port="0"/>
		<edge from-layer="396" from-port="0" to-layer="397" to-port="1"/>
		<edge from-layer="397" from-port="2" to-layer="399" to-port="0"/>
		<edge from-layer="398" from-port="0" to-layer="399" to-port="1"/>
		<edge from-layer="399" from-port="2" to-layer="401" to-port="0"/>
		<edge from-layer="400" from-port="0" to-layer="401" to-port="1"/>
		<edge from-layer="401" from-port="2" to-layer="406" to-port="0"/>
		<edge from-layer="402" from-port="0" to-layer="403" to-port="1"/>
		<edge from-layer="403" from-port="2" to-layer="405" to-port="0"/>
		<edge from-layer="404" from-port="0" to-layer="405" to-port="1"/>
		<edge from-layer="405" from-port="2" to-layer="406" to-port="1"/>
		<edge from-layer="406" from-port="2" to-layer="407" to-port="0"/>
		<edge from-layer="407" from-port="1" to-layer="409" to-port="0"/>
		<edge from-layer="407" from-port="1" to-layer="443" to-port="0"/>
		<edge from-layer="408" from-port="0" to-layer="409" to-port="1"/>
		<edge from-layer="409" from-port="2" to-layer="411" to-port="0"/>
		<edge from-layer="410" from-port="0" to-layer="411" to-port="1"/>
		<edge from-layer="411" from-port="2" to-layer="413" to-port="0"/>
		<edge from-layer="412" from-port="0" to-layer="413" to-port="1"/>
		<edge from-layer="413" from-port="2" to-layer="414" to-port="0"/>
		<edge from-layer="414" from-port="1" to-layer="416" to-port="0"/>
		<edge from-layer="415" from-port="0" to-layer="416" to-port="1"/>
		<edge from-layer="416" from-port="2" to-layer="418" to-port="0"/>
		<edge from-layer="417" from-port="0" to-layer="418" to-port="1"/>
		<edge from-layer="418" from-port="2" to-layer="420" to-port="0"/>
		<edge from-layer="419" from-port="0" to-layer="420" to-port="1"/>
		<edge from-layer="420" from-port="2" to-layer="421" to-port="0"/>
		<edge from-layer="421" from-port="1" to-layer="423" to-port="0"/>
		<edge from-layer="422" from-port="0" to-layer="423" to-port="1"/>
		<edge from-layer="423" from-port="2" to-layer="425" to-port="0"/>
		<edge from-layer="424" from-port="0" to-layer="425" to-port="1"/>
		<edge from-layer="425" from-port="2" to-layer="427" to-port="0"/>
		<edge from-layer="426" from-port="0" to-layer="427" to-port="1"/>
		<edge from-layer="427" from-port="2" to-layer="428" to-port="0"/>
		<edge from-layer="428" from-port="1" to-layer="430" to-port="0"/>
		<edge from-layer="429" from-port="0" to-layer="430" to-port="1"/>
		<edge from-layer="430" from-port="2" to-layer="432" to-port="0"/>
		<edge from-layer="431" from-port="0" to-layer="432" to-port="1"/>
		<edge from-layer="432" from-port="2" to-layer="434" to-port="0"/>
		<edge from-layer="433" from-port="0" to-layer="434" to-port="1"/>
		<edge from-layer="434" from-port="2" to-layer="435" to-port="0"/>
		<edge from-layer="435" from-port="1" to-layer="437" to-port="0"/>
		<edge from-layer="436" from-port="0" to-layer="437" to-port="1"/>
		<edge from-layer="437" from-port="2" to-layer="439" to-port="0"/>
		<edge from-layer="438" from-port="0" to-layer="439" to-port="1"/>
		<edge from-layer="439" from-port="2" to-layer="441" to-port="0"/>
		<edge from-layer="440" from-port="0" to-layer="441" to-port="1"/>
		<edge from-layer="441" from-port="2" to-layer="446" to-port="0"/>
		<edge from-layer="442" from-port="0" to-layer="443" to-port="1"/>
		<edge from-layer="443" from-port="2" to-layer="445" to-port="0"/>
		<edge from-layer="444" from-port="0" to-layer="445" to-port="1"/>
		<edge from-layer="445" from-port="2" to-layer="446" to-port="1"/>
		<edge from-layer="446" from-port="2" to-layer="447" to-port="0"/>
		<edge from-layer="447" from-port="1" to-layer="483" to-port="0"/>
		<edge from-layer="447" from-port="1" to-layer="449" to-port="0"/>
		<edge from-layer="448" from-port="0" to-layer="449" to-port="1"/>
		<edge from-layer="449" from-port="2" to-layer="451" to-port="0"/>
		<edge from-layer="450" from-port="0" to-layer="451" to-port="1"/>
		<edge from-layer="451" from-port="2" to-layer="453" to-port="0"/>
		<edge from-layer="452" from-port="0" to-layer="453" to-port="1"/>
		<edge from-layer="453" from-port="2" to-layer="454" to-port="0"/>
		<edge from-layer="454" from-port="1" to-layer="456" to-port="0"/>
		<edge from-layer="455" from-port="0" to-layer="456" to-port="1"/>
		<edge from-layer="456" from-port="2" to-layer="458" to-port="0"/>
		<edge from-layer="457" from-port="0" to-layer="458" to-port="1"/>
		<edge from-layer="458" from-port="2" to-layer="460" to-port="0"/>
		<edge from-layer="459" from-port="0" to-layer="460" to-port="1"/>
		<edge from-layer="460" from-port="2" to-layer="461" to-port="0"/>
		<edge from-layer="461" from-port="1" to-layer="463" to-port="0"/>
		<edge from-layer="462" from-port="0" to-layer="463" to-port="1"/>
		<edge from-layer="463" from-port="2" to-layer="465" to-port="0"/>
		<edge from-layer="464" from-port="0" to-layer="465" to-port="1"/>
		<edge from-layer="465" from-port="2" to-layer="467" to-port="0"/>
		<edge from-layer="466" from-port="0" to-layer="467" to-port="1"/>
		<edge from-layer="467" from-port="2" to-layer="468" to-port="0"/>
		<edge from-layer="468" from-port="1" to-layer="470" to-port="0"/>
		<edge from-layer="469" from-port="0" to-layer="470" to-port="1"/>
		<edge from-layer="470" from-port="2" to-layer="472" to-port="0"/>
		<edge from-layer="471" from-port="0" to-layer="472" to-port="1"/>
		<edge from-layer="472" from-port="2" to-layer="474" to-port="0"/>
		<edge from-layer="473" from-port="0" to-layer="474" to-port="1"/>
		<edge from-layer="474" from-port="2" to-layer="475" to-port="0"/>
		<edge from-layer="475" from-port="1" to-layer="477" to-port="0"/>
		<edge from-layer="476" from-port="0" to-layer="477" to-port="1"/>
		<edge from-layer="477" from-port="2" to-layer="479" to-port="0"/>
		<edge from-layer="478" from-port="0" to-layer="479" to-port="1"/>
		<edge from-layer="479" from-port="2" to-layer="481" to-port="0"/>
		<edge from-layer="480" from-port="0" to-layer="481" to-port="1"/>
		<edge from-layer="481" from-port="2" to-layer="486" to-port="0"/>
		<edge from-layer="482" from-port="0" to-layer="483" to-port="1"/>
		<edge from-layer="483" from-port="2" to-layer="485" to-port="0"/>
		<edge from-layer="484" from-port="0" to-layer="485" to-port="1"/>
		<edge from-layer="485" from-port="2" to-layer="486" to-port="1"/>
		<edge from-layer="486" from-port="2" to-layer="487" to-port="0"/>
		<edge from-layer="487" from-port="1" to-layer="523" to-port="0"/>
		<edge from-layer="487" from-port="1" to-layer="489" to-port="0"/>
		<edge from-layer="488" from-port="0" to-layer="489" to-port="1"/>
		<edge from-layer="489" from-port="2" to-layer="491" to-port="0"/>
		<edge from-layer="490" from-port="0" to-layer="491" to-port="1"/>
		<edge from-layer="491" from-port="2" to-layer="493" to-port="0"/>
		<edge from-layer="492" from-port="0" to-layer="493" to-port="1"/>
		<edge from-layer="493" from-port="2" to-layer="494" to-port="0"/>
		<edge from-layer="494" from-port="1" to-layer="496" to-port="0"/>
		<edge from-layer="495" from-port="0" to-layer="496" to-port="1"/>
		<edge from-layer="496" from-port="2" to-layer="498" to-port="0"/>
		<edge from-layer="497" from-port="0" to-layer="498" to-port="1"/>
		<edge from-layer="498" from-port="2" to-layer="500" to-port="0"/>
		<edge from-layer="499" from-port="0" to-layer="500" to-port="1"/>
		<edge from-layer="500" from-port="2" to-layer="501" to-port="0"/>
		<edge from-layer="501" from-port="1" to-layer="503" to-port="0"/>
		<edge from-layer="502" from-port="0" to-layer="503" to-port="1"/>
		<edge from-layer="503" from-port="2" to-layer="505" to-port="0"/>
		<edge from-layer="504" from-port="0" to-layer="505" to-port="1"/>
		<edge from-layer="505" from-port="2" to-layer="507" to-port="0"/>
		<edge from-layer="506" from-port="0" to-layer="507" to-port="1"/>
		<edge from-layer="507" from-port="2" to-layer="508" to-port="0"/>
		<edge from-layer="508" from-port="1" to-layer="510" to-port="0"/>
		<edge from-layer="509" from-port="0" to-layer="510" to-port="1"/>
		<edge from-layer="510" from-port="2" to-layer="512" to-port="0"/>
		<edge from-layer="511" from-port="0" to-layer="512" to-port="1"/>
		<edge from-layer="512" from-port="2" to-layer="514" to-port="0"/>
		<edge from-layer="513" from-port="0" to-layer="514" to-port="1"/>
		<edge from-layer="514" from-port="2" to-layer="515" to-port="0"/>
		<edge from-layer="515" from-port="1" to-layer="517" to-port="0"/>
		<edge from-layer="516" from-port="0" to-layer="517" to-port="1"/>
		<edge from-layer="517" from-port="2" to-layer="519" to-port="0"/>
		<edge from-layer="518" from-port="0" to-layer="519" to-port="1"/>
		<edge from-layer="519" from-port="2" to-layer="521" to-port="0"/>
		<edge from-layer="520" from-port="0" to-layer="521" to-port="1"/>
		<edge from-layer="521" from-port="2" to-layer="526" to-port="0"/>
		<edge from-layer="522" from-port="0" to-layer="523" to-port="1"/>
		<edge from-layer="523" from-port="2" to-layer="525" to-port="0"/>
		<edge from-layer="524" from-port="0" to-layer="525" to-port="1"/>
		<edge from-layer="525" from-port="2" to-layer="526" to-port="1"/>
		<edge from-layer="526" from-port="2" to-layer="527" to-port="0"/>
		<edge from-layer="527" from-port="1" to-layer="563" to-port="0"/>
		<edge from-layer="527" from-port="1" to-layer="529" to-port="0"/>
		<edge from-layer="528" from-port="0" to-layer="529" to-port="1"/>
		<edge from-layer="529" from-port="2" to-layer="531" to-port="0"/>
		<edge from-layer="530" from-port="0" to-layer="531" to-port="1"/>
		<edge from-layer="531" from-port="2" to-layer="533" to-port="0"/>
		<edge from-layer="532" from-port="0" to-layer="533" to-port="1"/>
		<edge from-layer="533" from-port="2" to-layer="534" to-port="0"/>
		<edge from-layer="534" from-port="1" to-layer="536" to-port="0"/>
		<edge from-layer="535" from-port="0" to-layer="536" to-port="1"/>
		<edge from-layer="536" from-port="2" to-layer="538" to-port="0"/>
		<edge from-layer="537" from-port="0" to-layer="538" to-port="1"/>
		<edge from-layer="538" from-port="2" to-layer="540" to-port="0"/>
		<edge from-layer="539" from-port="0" to-layer="540" to-port="1"/>
		<edge from-layer="540" from-port="2" to-layer="541" to-port="0"/>
		<edge from-layer="541" from-port="1" to-layer="543" to-port="0"/>
		<edge from-layer="542" from-port="0" to-layer="543" to-port="1"/>
		<edge from-layer="543" from-port="2" to-layer="545" to-port="0"/>
		<edge from-layer="544" from-port="0" to-layer="545" to-port="1"/>
		<edge from-layer="545" from-port="2" to-layer="547" to-port="0"/>
		<edge from-layer="546" from-port="0" to-layer="547" to-port="1"/>
		<edge from-layer="547" from-port="2" to-layer="548" to-port="0"/>
		<edge from-layer="548" from-port="1" to-layer="550" to-port="0"/>
		<edge from-layer="549" from-port="0" to-layer="550" to-port="1"/>
		<edge from-layer="550" from-port="2" to-layer="552" to-port="0"/>
		<edge from-layer="551" from-port="0" to-layer="552" to-port="1"/>
		<edge from-layer="552" from-port="2" to-layer="554" to-port="0"/>
		<edge from-layer="553" from-port="0" to-layer="554" to-port="1"/>
		<edge from-layer="554" from-port="2" to-layer="555" to-port="0"/>
		<edge from-layer="555" from-port="1" to-layer="557" to-port="0"/>
		<edge from-layer="556" from-port="0" to-layer="557" to-port="1"/>
		<edge from-layer="557" from-port="2" to-layer="559" to-port="0"/>
		<edge from-layer="558" from-port="0" to-layer="559" to-port="1"/>
		<edge from-layer="559" from-port="2" to-layer="561" to-port="0"/>
		<edge from-layer="560" from-port="0" to-layer="561" to-port="1"/>
		<edge from-layer="561" from-port="2" to-layer="566" to-port="0"/>
		<edge from-layer="562" from-port="0" to-layer="563" to-port="1"/>
		<edge from-layer="563" from-port="2" to-layer="565" to-port="0"/>
		<edge from-layer="564" from-port="0" to-layer="565" to-port="1"/>
		<edge from-layer="565" from-port="2" to-layer="566" to-port="1"/>
		<edge from-layer="566" from-port="2" to-layer="567" to-port="0"/>
		<edge from-layer="567" from-port="1" to-layer="603" to-port="0"/>
		<edge from-layer="567" from-port="1" to-layer="569" to-port="0"/>
		<edge from-layer="568" from-port="0" to-layer="569" to-port="1"/>
		<edge from-layer="569" from-port="2" to-layer="571" to-port="0"/>
		<edge from-layer="570" from-port="0" to-layer="571" to-port="1"/>
		<edge from-layer="571" from-port="2" to-layer="573" to-port="0"/>
		<edge from-layer="572" from-port="0" to-layer="573" to-port="1"/>
		<edge from-layer="573" from-port="2" to-layer="574" to-port="0"/>
		<edge from-layer="574" from-port="1" to-layer="576" to-port="0"/>
		<edge from-layer="575" from-port="0" to-layer="576" to-port="1"/>
		<edge from-layer="576" from-port="2" to-layer="578" to-port="0"/>
		<edge from-layer="577" from-port="0" to-layer="578" to-port="1"/>
		<edge from-layer="578" from-port="2" to-layer="580" to-port="0"/>
		<edge from-layer="579" from-port="0" to-layer="580" to-port="1"/>
		<edge from-layer="580" from-port="2" to-layer="581" to-port="0"/>
		<edge from-layer="581" from-port="1" to-layer="583" to-port="0"/>
		<edge from-layer="582" from-port="0" to-layer="583" to-port="1"/>
		<edge from-layer="583" from-port="2" to-layer="585" to-port="0"/>
		<edge from-layer="584" from-port="0" to-layer="585" to-port="1"/>
		<edge from-layer="585" from-port="2" to-layer="587" to-port="0"/>
		<edge from-layer="586" from-port="0" to-layer="587" to-port="1"/>
		<edge from-layer="587" from-port="2" to-layer="588" to-port="0"/>
		<edge from-layer="588" from-port="1" to-layer="590" to-port="0"/>
		<edge from-layer="589" from-port="0" to-layer="590" to-port="1"/>
		<edge from-layer="590" from-port="2" to-layer="592" to-port="0"/>
		<edge from-layer="591" from-port="0" to-layer="592" to-port="1"/>
		<edge from-layer="592" from-port="2" to-layer="594" to-port="0"/>
		<edge from-layer="593" from-port="0" to-layer="594" to-port="1"/>
		<edge from-layer="594" from-port="2" to-layer="595" to-port="0"/>
		<edge from-layer="595" from-port="1" to-layer="597" to-port="0"/>
		<edge from-layer="596" from-port="0" to-layer="597" to-port="1"/>
		<edge from-layer="597" from-port="2" to-layer="599" to-port="0"/>
		<edge from-layer="598" from-port="0" to-layer="599" to-port="1"/>
		<edge from-layer="599" from-port="2" to-layer="601" to-port="0"/>
		<edge from-layer="600" from-port="0" to-layer="601" to-port="1"/>
		<edge from-layer="601" from-port="2" to-layer="606" to-port="0"/>
		<edge from-layer="602" from-port="0" to-layer="603" to-port="1"/>
		<edge from-layer="603" from-port="2" to-layer="605" to-port="0"/>
		<edge from-layer="604" from-port="0" to-layer="605" to-port="1"/>
		<edge from-layer="605" from-port="2" to-layer="606" to-port="1"/>
		<edge from-layer="606" from-port="2" to-layer="607" to-port="0"/>
		<edge from-layer="607" from-port="1" to-layer="609" to-port="0"/>
		<edge from-layer="608" from-port="0" to-layer="609" to-port="1"/>
		<edge from-layer="609" from-port="2" to-layer="611" to-port="0"/>
		<edge from-layer="610" from-port="0" to-layer="611" to-port="1"/>
		<edge from-layer="611" from-port="2" to-layer="613" to-port="0"/>
		<edge from-layer="612" from-port="0" to-layer="613" to-port="1"/>
		<edge from-layer="613" from-port="2" to-layer="614" to-port="0"/>
		<edge from-layer="614" from-port="1" to-layer="616" to-port="0"/>
		<edge from-layer="615" from-port="0" to-layer="616" to-port="1"/>
		<edge from-layer="616" from-port="2" to-layer="618" to-port="0"/>
		<edge from-layer="617" from-port="0" to-layer="618" to-port="1"/>
		<edge from-layer="618" from-port="2" to-layer="619" to-port="0"/>
		<edge from-layer="619" from-port="1" to-layer="621" to-port="0"/>
		<edge from-layer="620" from-port="0" to-layer="621" to-port="1"/>
		<edge from-layer="621" from-port="2" to-layer="623" to-port="0"/>
		<edge from-layer="622" from-port="0" to-layer="623" to-port="1"/>
		<edge from-layer="623" from-port="2" to-layer="625" to-port="0"/>
		<edge from-layer="624" from-port="0" to-layer="625" to-port="1"/>
		<edge from-layer="625" from-port="2" to-layer="627" to-port="0"/>
		<edge from-layer="625" from-port="2" to-layer="636" to-port="0"/>
		<edge from-layer="625" from-port="2" to-layer="634" to-port="0"/>
		<edge from-layer="626" from-port="0" to-layer="633" to-port="0"/>
		<edge from-layer="627" from-port="1" to-layer="630" to-port="0"/>
		<edge from-layer="628" from-port="0" to-layer="630" to-port="1"/>
		<edge from-layer="629" from-port="0" to-layer="630" to-port="2"/>
		<edge from-layer="630" from-port="3" to-layer="632" to-port="0"/>
		<edge from-layer="631" from-port="0" to-layer="632" to-port="1"/>
		<edge from-layer="632" from-port="2" to-layer="633" to-port="1"/>
		<edge from-layer="633" from-port="2" to-layer="634" to-port="1"/>
		<edge from-layer="634" from-port="2" to-layer="635" to-port="0"/>
		<edge from-layer="635" from-port="1" to-layer="637" to-port="0"/>
		<edge from-layer="636" from-port="1" to-layer="637" to-port="1"/>
		<edge from-layer="637" from-port="2" to-layer="638" to-port="0"/>
	</edges>
	<meta_data>
		<MO_version value="2021.4.1-3926-14e67d86634-releases/2021/4"/>
		<cli_parameters>
			<caffe_parser_path value="DIR"/>
			<data_type value="float"/>
			<disable_nhwc_to_nchw value="False"/>
			<disable_omitting_optional value="False"/>
			<disable_resnet_optimization value="False"/>
			<disable_weights_compression value="False"/>
			<enable_concat_optimization value="False"/>
			<enable_flattening_nested_params value="False"/>
			<enable_ssd_gluoncv value="False"/>
			<extensions value="DIR"/>
			<framework value="onnx"/>
			<freeze_placeholder_with_value value="{}"/>
			<generate_deprecated_IR_V7 value="False"/>
			<input_model value="DIR/ru_quartznet.onnx"/>
			<input_model_is_text value="False"/>
			<input_shape value="[1,64,256]"/>
			<k value="DIR/CustomLayersMapping.xml"/>
			<keep_shape_ops value="True"/>
			<legacy_ir_generation value="False"/>
			<legacy_mxnet_model value="False"/>
			<log_level value="ERROR"/>
			<mean_scale_values value="{}"/>
			<mean_values value="()"/>
			<model_name value="ru_quartznet"/>
			<output_dir value="DIR"/>
			<placeholder_data_types value="{}"/>
			<placeholder_shapes value="[  1  64 256]"/>
			<progress value="False"/>
			<remove_memory value="False"/>
			<remove_output_softmax value="False"/>
			<reverse_input_channels value="False"/>
			<save_params_from_nd value="False"/>
			<scale_values value="()"/>
			<silent value="False"/>
			<static_shape value="False"/>
			<stream_output value="False"/>
			<transform value=""/>
			<unset unset_cli_parameters="batch, counts, disable_fusing, disable_gfusing, finegrain_fusing, input, input_checkpoint, input_meta_graph, input_proto, input_symbol, mean_file, mean_file_offsets, move_to_preprocess, nd_prefix_name, output, pretrained_model_name, saved_model_dir, saved_model_tags, scale, tensorboard_logdir, tensorflow_custom_layer_libraries, tensorflow_custom_operations_config_update, tensorflow_object_detection_api_pipeline_config, tensorflow_use_custom_operations_config, transformations_config"/>
		</cli_parameters>
	</meta_data>
</net>
